{"format": "graph-model", "generatedBy": "2.18.0", "convertedBy": "TensorFlow.js Converter v4.22.0", "signature": {"inputs": {"input_layer_3": {"name": "input_layer_3:0", "dtype": "DT_FLOAT", "tensorShape": {"dim": [{"size": "-1"}, {"size": "224"}, {"size": "224"}, {"size": "3"}]}}}, "outputs": {"output_0": {"name": "Identity:0", "dtype": "DT_FLOAT", "tensorShape": {"dim": [{"size": "-1"}, {"size": "4"}]}}}}, "modelTopology": {"node": [{"name": "StatefulPartitionedCall/sequential_2_1/inception_v3_1/conv2d_179_1/convolution/merged_input", "op": "Const", "attr": {"value": {"tensor": {"dtype": "DT_FLOAT", "tensorShape": {"dim": [{"size": "1"}, {"size": "1"}, {"size": "2048"}, {"size": "320"}]}}}, "dtype": {"type": "DT_FLOAT"}}}, {"name": "StatefulPartitionedCall/sequential_2_1/inception_v3_1/batch_normalization_179_1/batchnorm/sub", "op": "Const", "attr": {"value": {"tensor": {"dtype": "DT_FLOAT", "tensorShape": {"dim": [{"size": "1"}, {"size": "1"}, {"size": "1"}, {"size": "320"}]}}}, "dtype": {"type": "DT_FLOAT"}}}, {"name": "StatefulPartitionedCall/sequential_2_1/inception_v3_1/conv2d_181_1/convolution/merged_input", "op": "Const", "attr": {"value": {"tensor": {"dtype": "DT_FLOAT", "tensorShape": {"dim": [{"size": "1"}, {"size": "3"}, {"size": "384"}, {"size": "384"}]}}}, "dtype": {"type": "DT_FLOAT"}}}, {"name": "StatefulPartitionedCall/sequential_2_1/inception_v3_1/batch_normalization_181_1/batchnorm/sub", "op": "Const", "attr": {"value": {"tensor": {"dtype": "DT_FLOAT", "tensorShape": {"dim": [{"size": "1"}, {"size": "1"}, {"size": "1"}, {"size": "384"}]}}}, "dtype": {"type": "DT_FLOAT"}}}, {"name": "StatefulPartitionedCall/sequential_2_1/inception_v3_1/conv2d_180_1/convolution/merged_input", "op": "Const", "attr": {"value": {"tensor": {"dtype": "DT_FLOAT", "tensorShape": {"dim": [{"size": "1"}, {"size": "1"}, {"size": "2048"}, {"size": "384"}]}}}, "dtype": {"type": "DT_FLOAT"}}}, {"name": "StatefulPartitionedCall/sequential_2_1/inception_v3_1/batch_normalization_180_1/batchnorm/sub", "op": "Const", "attr": {"value": {"tensor": {"dtype": "DT_FLOAT", "tensorShape": {"dim": [{"size": "1"}, {"size": "1"}, {"size": "1"}, {"size": "384"}]}}}, "dtype": {"type": "DT_FLOAT"}}}, {"name": "StatefulPartitionedCall/sequential_2_1/inception_v3_1/conv2d_182_1/convolution/merged_input", "op": "Const", "attr": {"value": {"tensor": {"dtype": "DT_FLOAT", "tensorShape": {"dim": [{"size": "3"}, {"size": "1"}, {"size": "384"}, {"size": "384"}]}}}, "dtype": {"type": "DT_FLOAT"}}}, {"name": "StatefulPartitionedCall/sequential_2_1/inception_v3_1/batch_normalization_182_1/batchnorm/sub", "op": "Const", "attr": {"value": {"tensor": {"dtype": "DT_FLOAT", "tensorShape": {"dim": [{"size": "1"}, {"size": "1"}, {"size": "1"}, {"size": "384"}]}}}, "dtype": {"type": "DT_FLOAT"}}}, {"name": "StatefulPartitionedCall/sequential_2_1/inception_v3_1/conv2d_185_1/convolution/merged_input", "op": "Const", "attr": {"value": {"tensor": {"dtype": "DT_FLOAT", "tensorShape": {"dim": [{"size": "1"}, {"size": "3"}, {"size": "384"}, {"size": "384"}]}}}, "dtype": {"type": "DT_FLOAT"}}}, {"name": "StatefulPartitionedCall/sequential_2_1/inception_v3_1/batch_normalization_185_1/batchnorm/sub", "op": "Const", "attr": {"value": {"tensor": {"dtype": "DT_FLOAT", "tensorShape": {"dim": [{"size": "1"}, {"size": "1"}, {"size": "1"}, {"size": "384"}]}}}, "dtype": {"type": "DT_FLOAT"}}}, {"name": "StatefulPartitionedCall/sequential_2_1/inception_v3_1/conv2d_183_1/convolution/merged_input", "op": "Const", "attr": {"value": {"tensor": {"dtype": "DT_FLOAT", "tensorShape": {"dim": [{"size": "1"}, {"size": "1"}, {"size": "2048"}, {"size": "448"}]}}}, "dtype": {"type": "DT_FLOAT"}}}, {"name": "StatefulPartitionedCall/sequential_2_1/inception_v3_1/batch_normalization_183_1/batchnorm/sub", "op": "Const", "attr": {"value": {"tensor": {"dtype": "DT_FLOAT", "tensorShape": {"dim": [{"size": "1"}, {"size": "1"}, {"size": "1"}, {"size": "448"}]}}}, "dtype": {"type": "DT_FLOAT"}}}, {"name": "StatefulPartitionedCall/sequential_2_1/inception_v3_1/conv2d_184_1/convolution/merged_input", "op": "Const", "attr": {"value": {"tensor": {"dtype": "DT_FLOAT", "tensorShape": {"dim": [{"size": "3"}, {"size": "3"}, {"size": "448"}, {"size": "384"}]}}}, "dtype": {"type": "DT_FLOAT"}}}, {"name": "StatefulPartitionedCall/sequential_2_1/inception_v3_1/batch_normalization_184_1/batchnorm/sub", "op": "Const", "attr": {"value": {"tensor": {"dtype": "DT_FLOAT", "tensorShape": {"dim": [{"size": "1"}, {"size": "1"}, {"size": "1"}, {"size": "384"}]}}}, "dtype": {"type": "DT_FLOAT"}}}, {"name": "StatefulPartitionedCall/sequential_2_1/inception_v3_1/conv2d_186_1/convolution/merged_input", "op": "Const", "attr": {"value": {"tensor": {"dtype": "DT_FLOAT", "tensorShape": {"dim": [{"size": "3"}, {"size": "1"}, {"size": "384"}, {"size": "384"}]}}}, "dtype": {"type": "DT_FLOAT"}}}, {"name": "StatefulPartitionedCall/sequential_2_1/inception_v3_1/batch_normalization_186_1/batchnorm/sub", "op": "Const", "attr": {"value": {"tensor": {"dtype": "DT_FLOAT", "tensorShape": {"dim": [{"size": "1"}, {"size": "1"}, {"size": "1"}, {"size": "384"}]}}}, "dtype": {"type": "DT_FLOAT"}}}, {"name": "StatefulPartitionedCall/sequential_2_1/inception_v3_1/conv2d_170_1/convolution/merged_input", "op": "Const", "attr": {"value": {"tensor": {"dtype": "DT_FLOAT", "tensorShape": {"dim": [{"size": "1"}, {"size": "1"}, {"size": "1280"}, {"size": "320"}]}}}, "dtype": {"type": "DT_FLOAT"}}}, {"name": "StatefulPartitionedCall/sequential_2_1/inception_v3_1/batch_normalization_170_1/batchnorm/sub", "op": "Const", "attr": {"value": {"tensor": {"dtype": "DT_FLOAT", "tensorShape": {"dim": [{"size": "1"}, {"size": "1"}, {"size": "1"}, {"size": "320"}]}}}, "dtype": {"type": "DT_FLOAT"}}}, {"name": "StatefulPartitionedCall/sequential_2_1/inception_v3_1/conv2d_172_1/convolution/merged_input", "op": "Const", "attr": {"value": {"tensor": {"dtype": "DT_FLOAT", "tensorShape": {"dim": [{"size": "1"}, {"size": "3"}, {"size": "384"}, {"size": "384"}]}}}, "dtype": {"type": "DT_FLOAT"}}}, {"name": "StatefulPartitionedCall/sequential_2_1/inception_v3_1/batch_normalization_172_1/batchnorm/sub", "op": "Const", "attr": {"value": {"tensor": {"dtype": "DT_FLOAT", "tensorShape": {"dim": [{"size": "1"}, {"size": "1"}, {"size": "1"}, {"size": "384"}]}}}, "dtype": {"type": "DT_FLOAT"}}}, {"name": "StatefulPartitionedCall/sequential_2_1/inception_v3_1/conv2d_171_1/convolution/merged_input", "op": "Const", "attr": {"value": {"tensor": {"dtype": "DT_FLOAT", "tensorShape": {"dim": [{"size": "1"}, {"size": "1"}, {"size": "1280"}, {"size": "384"}]}}}, "dtype": {"type": "DT_FLOAT"}}}, {"name": "StatefulPartitionedCall/sequential_2_1/inception_v3_1/batch_normalization_171_1/batchnorm/sub", "op": "Const", "attr": {"value": {"tensor": {"dtype": "DT_FLOAT", "tensorShape": {"dim": [{"size": "1"}, {"size": "1"}, {"size": "1"}, {"size": "384"}]}}}, "dtype": {"type": "DT_FLOAT"}}}, {"name": "StatefulPartitionedCall/sequential_2_1/inception_v3_1/conv2d_173_1/convolution/merged_input", "op": "Const", "attr": {"value": {"tensor": {"dtype": "DT_FLOAT", "tensorShape": {"dim": [{"size": "3"}, {"size": "1"}, {"size": "384"}, {"size": "384"}]}}}, "dtype": {"type": "DT_FLOAT"}}}, {"name": "StatefulPartitionedCall/sequential_2_1/inception_v3_1/batch_normalization_173_1/batchnorm/sub", "op": "Const", "attr": {"value": {"tensor": {"dtype": "DT_FLOAT", "tensorShape": {"dim": [{"size": "1"}, {"size": "1"}, {"size": "1"}, {"size": "384"}]}}}, "dtype": {"type": "DT_FLOAT"}}}, {"name": "StatefulPartitionedCall/sequential_2_1/inception_v3_1/conv2d_176_1/convolution/merged_input", "op": "Const", "attr": {"value": {"tensor": {"dtype": "DT_FLOAT", "tensorShape": {"dim": [{"size": "1"}, {"size": "3"}, {"size": "384"}, {"size": "384"}]}}}, "dtype": {"type": "DT_FLOAT"}}}, {"name": "StatefulPartitionedCall/sequential_2_1/inception_v3_1/batch_normalization_176_1/batchnorm/sub", "op": "Const", "attr": {"value": {"tensor": {"dtype": "DT_FLOAT", "tensorShape": {"dim": [{"size": "1"}, {"size": "1"}, {"size": "1"}, {"size": "384"}]}}}, "dtype": {"type": "DT_FLOAT"}}}, {"name": "StatefulPartitionedCall/sequential_2_1/inception_v3_1/conv2d_174_1/convolution/merged_input", "op": "Const", "attr": {"value": {"tensor": {"dtype": "DT_FLOAT", "tensorShape": {"dim": [{"size": "1"}, {"size": "1"}, {"size": "1280"}, {"size": "448"}]}}}, "dtype": {"type": "DT_FLOAT"}}}, {"name": "StatefulPartitionedCall/sequential_2_1/inception_v3_1/batch_normalization_174_1/batchnorm/sub", "op": "Const", "attr": {"value": {"tensor": {"dtype": "DT_FLOAT", "tensorShape": {"dim": [{"size": "1"}, {"size": "1"}, {"size": "1"}, {"size": "448"}]}}}, "dtype": {"type": "DT_FLOAT"}}}, {"name": "StatefulPartitionedCall/sequential_2_1/inception_v3_1/conv2d_175_1/convolution/merged_input", "op": "Const", "attr": {"value": {"tensor": {"dtype": "DT_FLOAT", "tensorShape": {"dim": [{"size": "3"}, {"size": "3"}, {"size": "448"}, {"size": "384"}]}}}, "dtype": {"type": "DT_FLOAT"}}}, {"name": "StatefulPartitionedCall/sequential_2_1/inception_v3_1/batch_normalization_175_1/batchnorm/sub", "op": "Const", "attr": {"value": {"tensor": {"dtype": "DT_FLOAT", "tensorShape": {"dim": [{"size": "1"}, {"size": "1"}, {"size": "1"}, {"size": "384"}]}}}, "dtype": {"type": "DT_FLOAT"}}}, {"name": "StatefulPartitionedCall/sequential_2_1/inception_v3_1/conv2d_177_1/convolution/merged_input", "op": "Const", "attr": {"value": {"tensor": {"dtype": "DT_FLOAT", "tensorShape": {"dim": [{"size": "3"}, {"size": "1"}, {"size": "384"}, {"size": "384"}]}}}, "dtype": {"type": "DT_FLOAT"}}}, {"name": "StatefulPartitionedCall/sequential_2_1/inception_v3_1/batch_normalization_177_1/batchnorm/sub", "op": "Const", "attr": {"value": {"tensor": {"dtype": "DT_FLOAT", "tensorShape": {"dim": [{"size": "1"}, {"size": "1"}, {"size": "1"}, {"size": "384"}]}}}, "dtype": {"type": "DT_FLOAT"}}}, {"name": "StatefulPartitionedCall/sequential_2_1/inception_v3_1/conv2d_164_1/convolution/merged_input", "op": "Const", "attr": {"value": {"tensor": {"dtype": "DT_FLOAT", "tensorShape": {"dim": [{"size": "1"}, {"size": "1"}, {"size": "768"}, {"size": "192"}]}}}, "dtype": {"type": "DT_FLOAT"}}}, {"name": "StatefulPartitionedCall/sequential_2_1/inception_v3_1/batch_normalization_164_1/batchnorm/sub", "op": "Const", "attr": {"value": {"tensor": {"dtype": "DT_FLOAT", "tensorShape": {"dim": [{"size": "1"}, {"size": "1"}, {"size": "1"}, {"size": "192"}]}}}, "dtype": {"type": "DT_FLOAT"}}}, {"name": "StatefulPartitionedCall/sequential_2_1/inception_v3_1/conv2d_165_1/convolution/merged_input", "op": "Const", "attr": {"value": {"tensor": {"dtype": "DT_FLOAT", "tensorShape": {"dim": [{"size": "3"}, {"size": "3"}, {"size": "192"}, {"size": "320"}]}}}, "dtype": {"type": "DT_FLOAT"}}}, {"name": "StatefulPartitionedCall/sequential_2_1/inception_v3_1/batch_normalization_165_1/batchnorm/sub", "op": "Const", "attr": {"value": {"tensor": {"dtype": "DT_FLOAT", "tensorShape": {"dim": [{"size": "1"}, {"size": "1"}, {"size": "1"}, {"size": "320"}]}}}, "dtype": {"type": "DT_FLOAT"}}}, {"name": "StatefulPartitionedCall/sequential_2_1/inception_v3_1/conv2d_166_1/convolution/merged_input", "op": "Const", "attr": {"value": {"tensor": {"dtype": "DT_FLOAT", "tensorShape": {"dim": [{"size": "1"}, {"size": "1"}, {"size": "768"}, {"size": "192"}]}}}, "dtype": {"type": "DT_FLOAT"}}}, {"name": "StatefulPartitionedCall/sequential_2_1/inception_v3_1/batch_normalization_166_1/batchnorm/sub", "op": "Const", "attr": {"value": {"tensor": {"dtype": "DT_FLOAT", "tensorShape": {"dim": [{"size": "1"}, {"size": "1"}, {"size": "1"}, {"size": "192"}]}}}, "dtype": {"type": "DT_FLOAT"}}}, {"name": "StatefulPartitionedCall/sequential_2_1/inception_v3_1/conv2d_167_1/convolution/merged_input", "op": "Const", "attr": {"value": {"tensor": {"dtype": "DT_FLOAT", "tensorShape": {"dim": [{"size": "1"}, {"size": "7"}, {"size": "192"}, {"size": "192"}]}}}, "dtype": {"type": "DT_FLOAT"}}}, {"name": "StatefulPartitionedCall/sequential_2_1/inception_v3_1/batch_normalization_167_1/batchnorm/sub", "op": "Const", "attr": {"value": {"tensor": {"dtype": "DT_FLOAT", "tensorShape": {"dim": [{"size": "1"}, {"size": "1"}, {"size": "1"}, {"size": "192"}]}}}, "dtype": {"type": "DT_FLOAT"}}}, {"name": "StatefulPartitionedCall/sequential_2_1/inception_v3_1/conv2d_168_1/convolution/merged_input", "op": "Const", "attr": {"value": {"tensor": {"dtype": "DT_FLOAT", "tensorShape": {"dim": [{"size": "7"}, {"size": "1"}, {"size": "192"}, {"size": "192"}]}}}, "dtype": {"type": "DT_FLOAT"}}}, {"name": "StatefulPartitionedCall/sequential_2_1/inception_v3_1/batch_normalization_168_1/batchnorm/sub", "op": "Const", "attr": {"value": {"tensor": {"dtype": "DT_FLOAT", "tensorShape": {"dim": [{"size": "1"}, {"size": "1"}, {"size": "1"}, {"size": "192"}]}}}, "dtype": {"type": "DT_FLOAT"}}}, {"name": "StatefulPartitionedCall/sequential_2_1/inception_v3_1/conv2d_169_1/convolution/merged_input", "op": "Const", "attr": {"value": {"tensor": {"dtype": "DT_FLOAT", "tensorShape": {"dim": [{"size": "3"}, {"size": "3"}, {"size": "192"}, {"size": "192"}]}}}, "dtype": {"type": "DT_FLOAT"}}}, {"name": "StatefulPartitionedCall/sequential_2_1/inception_v3_1/batch_normalization_169_1/batchnorm/sub", "op": "Const", "attr": {"value": {"tensor": {"dtype": "DT_FLOAT", "tensorShape": {"dim": [{"size": "1"}, {"size": "1"}, {"size": "1"}, {"size": "192"}]}}}, "dtype": {"type": "DT_FLOAT"}}}, {"name": "StatefulPartitionedCall/sequential_2_1/inception_v3_1/conv2d_154_1/convolution/merged_input", "op": "Const", "attr": {"value": {"tensor": {"dtype": "DT_FLOAT", "tensorShape": {"dim": [{"size": "1"}, {"size": "1"}, {"size": "768"}, {"size": "192"}]}}}, "dtype": {"type": "DT_FLOAT"}}}, {"name": "StatefulPartitionedCall/sequential_2_1/inception_v3_1/batch_normalization_154_1/batchnorm/sub", "op": "Const", "attr": {"value": {"tensor": {"dtype": "DT_FLOAT", "tensorShape": {"dim": [{"size": "1"}, {"size": "1"}, {"size": "1"}, {"size": "192"}]}}}, "dtype": {"type": "DT_FLOAT"}}}, {"name": "StatefulPartitionedCall/sequential_2_1/inception_v3_1/conv2d_155_1/convolution/merged_input", "op": "Const", "attr": {"value": {"tensor": {"dtype": "DT_FLOAT", "tensorShape": {"dim": [{"size": "1"}, {"size": "1"}, {"size": "768"}, {"size": "192"}]}}}, "dtype": {"type": "DT_FLOAT"}}}, {"name": "StatefulPartitionedCall/sequential_2_1/inception_v3_1/batch_normalization_155_1/batchnorm/sub", "op": "Const", "attr": {"value": {"tensor": {"dtype": "DT_FLOAT", "tensorShape": {"dim": [{"size": "1"}, {"size": "1"}, {"size": "1"}, {"size": "192"}]}}}, "dtype": {"type": "DT_FLOAT"}}}, {"name": "StatefulPartitionedCall/sequential_2_1/inception_v3_1/conv2d_156_1/convolution/merged_input", "op": "Const", "attr": {"value": {"tensor": {"dtype": "DT_FLOAT", "tensorShape": {"dim": [{"size": "1"}, {"size": "7"}, {"size": "192"}, {"size": "192"}]}}}, "dtype": {"type": "DT_FLOAT"}}}, {"name": "StatefulPartitionedCall/sequential_2_1/inception_v3_1/batch_normalization_156_1/batchnorm/sub", "op": "Const", "attr": {"value": {"tensor": {"dtype": "DT_FLOAT", "tensorShape": {"dim": [{"size": "1"}, {"size": "1"}, {"size": "1"}, {"size": "192"}]}}}, "dtype": {"type": "DT_FLOAT"}}}, {"name": "StatefulPartitionedCall/sequential_2_1/inception_v3_1/conv2d_157_1/convolution/merged_input", "op": "Const", "attr": {"value": {"tensor": {"dtype": "DT_FLOAT", "tensorShape": {"dim": [{"size": "7"}, {"size": "1"}, {"size": "192"}, {"size": "192"}]}}}, "dtype": {"type": "DT_FLOAT"}}}, {"name": "StatefulPartitionedCall/sequential_2_1/inception_v3_1/batch_normalization_157_1/batchnorm/sub", "op": "Const", "attr": {"value": {"tensor": {"dtype": "DT_FLOAT", "tensorShape": {"dim": [{"size": "1"}, {"size": "1"}, {"size": "1"}, {"size": "192"}]}}}, "dtype": {"type": "DT_FLOAT"}}}, {"name": "StatefulPartitionedCall/sequential_2_1/inception_v3_1/conv2d_158_1/convolution/merged_input", "op": "Const", "attr": {"value": {"tensor": {"dtype": "DT_FLOAT", "tensorShape": {"dim": [{"size": "1"}, {"size": "1"}, {"size": "768"}, {"size": "192"}]}}}, "dtype": {"type": "DT_FLOAT"}}}, {"name": "StatefulPartitionedCall/sequential_2_1/inception_v3_1/batch_normalization_158_1/batchnorm/sub", "op": "Const", "attr": {"value": {"tensor": {"dtype": "DT_FLOAT", "tensorShape": {"dim": [{"size": "1"}, {"size": "1"}, {"size": "1"}, {"size": "192"}]}}}, "dtype": {"type": "DT_FLOAT"}}}, {"name": "StatefulPartitionedCall/sequential_2_1/inception_v3_1/conv2d_159_1/convolution/merged_input", "op": "Const", "attr": {"value": {"tensor": {"dtype": "DT_FLOAT", "tensorShape": {"dim": [{"size": "7"}, {"size": "1"}, {"size": "192"}, {"size": "192"}]}}}, "dtype": {"type": "DT_FLOAT"}}}, {"name": "StatefulPartitionedCall/sequential_2_1/inception_v3_1/batch_normalization_159_1/batchnorm/sub", "op": "Const", "attr": {"value": {"tensor": {"dtype": "DT_FLOAT", "tensorShape": {"dim": [{"size": "1"}, {"size": "1"}, {"size": "1"}, {"size": "192"}]}}}, "dtype": {"type": "DT_FLOAT"}}}, {"name": "StatefulPartitionedCall/sequential_2_1/inception_v3_1/conv2d_160_1/convolution/merged_input", "op": "Const", "attr": {"value": {"tensor": {"dtype": "DT_FLOAT", "tensorShape": {"dim": [{"size": "1"}, {"size": "7"}, {"size": "192"}, {"size": "192"}]}}}, "dtype": {"type": "DT_FLOAT"}}}, {"name": "StatefulPartitionedCall/sequential_2_1/inception_v3_1/batch_normalization_160_1/batchnorm/sub", "op": "Const", "attr": {"value": {"tensor": {"dtype": "DT_FLOAT", "tensorShape": {"dim": [{"size": "1"}, {"size": "1"}, {"size": "1"}, {"size": "192"}]}}}, "dtype": {"type": "DT_FLOAT"}}}, {"name": "StatefulPartitionedCall/sequential_2_1/inception_v3_1/conv2d_161_1/convolution/merged_input", "op": "Const", "attr": {"value": {"tensor": {"dtype": "DT_FLOAT", "tensorShape": {"dim": [{"size": "7"}, {"size": "1"}, {"size": "192"}, {"size": "192"}]}}}, "dtype": {"type": "DT_FLOAT"}}}, {"name": "StatefulPartitionedCall/sequential_2_1/inception_v3_1/batch_normalization_161_1/batchnorm/sub", "op": "Const", "attr": {"value": {"tensor": {"dtype": "DT_FLOAT", "tensorShape": {"dim": [{"size": "1"}, {"size": "1"}, {"size": "1"}, {"size": "192"}]}}}, "dtype": {"type": "DT_FLOAT"}}}, {"name": "StatefulPartitionedCall/sequential_2_1/inception_v3_1/conv2d_162_1/convolution/merged_input", "op": "Const", "attr": {"value": {"tensor": {"dtype": "DT_FLOAT", "tensorShape": {"dim": [{"size": "1"}, {"size": "7"}, {"size": "192"}, {"size": "192"}]}}}, "dtype": {"type": "DT_FLOAT"}}}, {"name": "StatefulPartitionedCall/sequential_2_1/inception_v3_1/batch_normalization_162_1/batchnorm/sub", "op": "Const", "attr": {"value": {"tensor": {"dtype": "DT_FLOAT", "tensorShape": {"dim": [{"size": "1"}, {"size": "1"}, {"size": "1"}, {"size": "192"}]}}}, "dtype": {"type": "DT_FLOAT"}}}, {"name": "StatefulPartitionedCall/sequential_2_1/inception_v3_1/conv2d_144_1/convolution/merged_input", "op": "Const", "attr": {"value": {"tensor": {"dtype": "DT_FLOAT", "tensorShape": {"dim": [{"size": "1"}, {"size": "1"}, {"size": "768"}, {"size": "192"}]}}}, "dtype": {"type": "DT_FLOAT"}}}, {"name": "StatefulPartitionedCall/sequential_2_1/inception_v3_1/batch_normalization_144_1/batchnorm/sub", "op": "Const", "attr": {"value": {"tensor": {"dtype": "DT_FLOAT", "tensorShape": {"dim": [{"size": "1"}, {"size": "1"}, {"size": "1"}, {"size": "192"}]}}}, "dtype": {"type": "DT_FLOAT"}}}, {"name": "StatefulPartitionedCall/sequential_2_1/inception_v3_1/conv2d_145_1/convolution/merged_input", "op": "Const", "attr": {"value": {"tensor": {"dtype": "DT_FLOAT", "tensorShape": {"dim": [{"size": "1"}, {"size": "1"}, {"size": "768"}, {"size": "160"}]}}}, "dtype": {"type": "DT_FLOAT"}}}, {"name": "StatefulPartitionedCall/sequential_2_1/inception_v3_1/batch_normalization_145_1/batchnorm/sub", "op": "Const", "attr": {"value": {"tensor": {"dtype": "DT_FLOAT", "tensorShape": {"dim": [{"size": "1"}, {"size": "1"}, {"size": "1"}, {"size": "160"}]}}}, "dtype": {"type": "DT_FLOAT"}}}, {"name": "StatefulPartitionedCall/sequential_2_1/inception_v3_1/conv2d_146_1/convolution/merged_input", "op": "Const", "attr": {"value": {"tensor": {"dtype": "DT_FLOAT", "tensorShape": {"dim": [{"size": "1"}, {"size": "7"}, {"size": "160"}, {"size": "160"}]}}}, "dtype": {"type": "DT_FLOAT"}}}, {"name": "StatefulPartitionedCall/sequential_2_1/inception_v3_1/batch_normalization_146_1/batchnorm/sub", "op": "Const", "attr": {"value": {"tensor": {"dtype": "DT_FLOAT", "tensorShape": {"dim": [{"size": "1"}, {"size": "1"}, {"size": "1"}, {"size": "160"}]}}}, "dtype": {"type": "DT_FLOAT"}}}, {"name": "StatefulPartitionedCall/sequential_2_1/inception_v3_1/conv2d_147_1/convolution/merged_input", "op": "Const", "attr": {"value": {"tensor": {"dtype": "DT_FLOAT", "tensorShape": {"dim": [{"size": "7"}, {"size": "1"}, {"size": "160"}, {"size": "192"}]}}}, "dtype": {"type": "DT_FLOAT"}}}, {"name": "StatefulPartitionedCall/sequential_2_1/inception_v3_1/batch_normalization_147_1/batchnorm/sub", "op": "Const", "attr": {"value": {"tensor": {"dtype": "DT_FLOAT", "tensorShape": {"dim": [{"size": "1"}, {"size": "1"}, {"size": "1"}, {"size": "192"}]}}}, "dtype": {"type": "DT_FLOAT"}}}, {"name": "StatefulPartitionedCall/sequential_2_1/inception_v3_1/conv2d_148_1/convolution/merged_input", "op": "Const", "attr": {"value": {"tensor": {"dtype": "DT_FLOAT", "tensorShape": {"dim": [{"size": "1"}, {"size": "1"}, {"size": "768"}, {"size": "160"}]}}}, "dtype": {"type": "DT_FLOAT"}}}, {"name": "StatefulPartitionedCall/sequential_2_1/inception_v3_1/batch_normalization_148_1/batchnorm/sub", "op": "Const", "attr": {"value": {"tensor": {"dtype": "DT_FLOAT", "tensorShape": {"dim": [{"size": "1"}, {"size": "1"}, {"size": "1"}, {"size": "160"}]}}}, "dtype": {"type": "DT_FLOAT"}}}, {"name": "StatefulPartitionedCall/sequential_2_1/inception_v3_1/conv2d_149_1/convolution/merged_input", "op": "Const", "attr": {"value": {"tensor": {"dtype": "DT_FLOAT", "tensorShape": {"dim": [{"size": "7"}, {"size": "1"}, {"size": "160"}, {"size": "160"}]}}}, "dtype": {"type": "DT_FLOAT"}}}, {"name": "StatefulPartitionedCall/sequential_2_1/inception_v3_1/batch_normalization_149_1/batchnorm/sub", "op": "Const", "attr": {"value": {"tensor": {"dtype": "DT_FLOAT", "tensorShape": {"dim": [{"size": "1"}, {"size": "1"}, {"size": "1"}, {"size": "160"}]}}}, "dtype": {"type": "DT_FLOAT"}}}, {"name": "StatefulPartitionedCall/sequential_2_1/inception_v3_1/conv2d_150_1/convolution/merged_input", "op": "Const", "attr": {"value": {"tensor": {"dtype": "DT_FLOAT", "tensorShape": {"dim": [{"size": "1"}, {"size": "7"}, {"size": "160"}, {"size": "160"}]}}}, "dtype": {"type": "DT_FLOAT"}}}, {"name": "StatefulPartitionedCall/sequential_2_1/inception_v3_1/batch_normalization_150_1/batchnorm/sub", "op": "Const", "attr": {"value": {"tensor": {"dtype": "DT_FLOAT", "tensorShape": {"dim": [{"size": "1"}, {"size": "1"}, {"size": "1"}, {"size": "160"}]}}}, "dtype": {"type": "DT_FLOAT"}}}, {"name": "StatefulPartitionedCall/sequential_2_1/inception_v3_1/conv2d_151_1/convolution/merged_input", "op": "Const", "attr": {"value": {"tensor": {"dtype": "DT_FLOAT", "tensorShape": {"dim": [{"size": "7"}, {"size": "1"}, {"size": "160"}, {"size": "160"}]}}}, "dtype": {"type": "DT_FLOAT"}}}, {"name": "StatefulPartitionedCall/sequential_2_1/inception_v3_1/batch_normalization_151_1/batchnorm/sub", "op": "Const", "attr": {"value": {"tensor": {"dtype": "DT_FLOAT", "tensorShape": {"dim": [{"size": "1"}, {"size": "1"}, {"size": "1"}, {"size": "160"}]}}}, "dtype": {"type": "DT_FLOAT"}}}, {"name": "StatefulPartitionedCall/sequential_2_1/inception_v3_1/conv2d_152_1/convolution/merged_input", "op": "Const", "attr": {"value": {"tensor": {"dtype": "DT_FLOAT", "tensorShape": {"dim": [{"size": "1"}, {"size": "7"}, {"size": "160"}, {"size": "192"}]}}}, "dtype": {"type": "DT_FLOAT"}}}, {"name": "StatefulPartitionedCall/sequential_2_1/inception_v3_1/batch_normalization_152_1/batchnorm/sub", "op": "Const", "attr": {"value": {"tensor": {"dtype": "DT_FLOAT", "tensorShape": {"dim": [{"size": "1"}, {"size": "1"}, {"size": "1"}, {"size": "192"}]}}}, "dtype": {"type": "DT_FLOAT"}}}, {"name": "StatefulPartitionedCall/sequential_2_1/inception_v3_1/conv2d_134_1/convolution/merged_input", "op": "Const", "attr": {"value": {"tensor": {"dtype": "DT_FLOAT", "tensorShape": {"dim": [{"size": "1"}, {"size": "1"}, {"size": "768"}, {"size": "192"}]}}}, "dtype": {"type": "DT_FLOAT"}}}, {"name": "StatefulPartitionedCall/sequential_2_1/inception_v3_1/batch_normalization_134_1/batchnorm/sub", "op": "Const", "attr": {"value": {"tensor": {"dtype": "DT_FLOAT", "tensorShape": {"dim": [{"size": "1"}, {"size": "1"}, {"size": "1"}, {"size": "192"}]}}}, "dtype": {"type": "DT_FLOAT"}}}, {"name": "StatefulPartitionedCall/sequential_2_1/inception_v3_1/conv2d_135_1/convolution/merged_input", "op": "Const", "attr": {"value": {"tensor": {"dtype": "DT_FLOAT", "tensorShape": {"dim": [{"size": "1"}, {"size": "1"}, {"size": "768"}, {"size": "160"}]}}}, "dtype": {"type": "DT_FLOAT"}}}, {"name": "StatefulPartitionedCall/sequential_2_1/inception_v3_1/batch_normalization_135_1/batchnorm/sub", "op": "Const", "attr": {"value": {"tensor": {"dtype": "DT_FLOAT", "tensorShape": {"dim": [{"size": "1"}, {"size": "1"}, {"size": "1"}, {"size": "160"}]}}}, "dtype": {"type": "DT_FLOAT"}}}, {"name": "StatefulPartitionedCall/sequential_2_1/inception_v3_1/conv2d_136_1/convolution/merged_input", "op": "Const", "attr": {"value": {"tensor": {"dtype": "DT_FLOAT", "tensorShape": {"dim": [{"size": "1"}, {"size": "7"}, {"size": "160"}, {"size": "160"}]}}}, "dtype": {"type": "DT_FLOAT"}}}, {"name": "StatefulPartitionedCall/sequential_2_1/inception_v3_1/batch_normalization_136_1/batchnorm/sub", "op": "Const", "attr": {"value": {"tensor": {"dtype": "DT_FLOAT", "tensorShape": {"dim": [{"size": "1"}, {"size": "1"}, {"size": "1"}, {"size": "160"}]}}}, "dtype": {"type": "DT_FLOAT"}}}, {"name": "StatefulPartitionedCall/sequential_2_1/inception_v3_1/conv2d_137_1/convolution/merged_input", "op": "Const", "attr": {"value": {"tensor": {"dtype": "DT_FLOAT", "tensorShape": {"dim": [{"size": "7"}, {"size": "1"}, {"size": "160"}, {"size": "192"}]}}}, "dtype": {"type": "DT_FLOAT"}}}, {"name": "StatefulPartitionedCall/sequential_2_1/inception_v3_1/batch_normalization_137_1/batchnorm/sub", "op": "Const", "attr": {"value": {"tensor": {"dtype": "DT_FLOAT", "tensorShape": {"dim": [{"size": "1"}, {"size": "1"}, {"size": "1"}, {"size": "192"}]}}}, "dtype": {"type": "DT_FLOAT"}}}, {"name": "StatefulPartitionedCall/sequential_2_1/inception_v3_1/conv2d_138_1/convolution/merged_input", "op": "Const", "attr": {"value": {"tensor": {"dtype": "DT_FLOAT", "tensorShape": {"dim": [{"size": "1"}, {"size": "1"}, {"size": "768"}, {"size": "160"}]}}}, "dtype": {"type": "DT_FLOAT"}}}, {"name": "StatefulPartitionedCall/sequential_2_1/inception_v3_1/batch_normalization_138_1/batchnorm/sub", "op": "Const", "attr": {"value": {"tensor": {"dtype": "DT_FLOAT", "tensorShape": {"dim": [{"size": "1"}, {"size": "1"}, {"size": "1"}, {"size": "160"}]}}}, "dtype": {"type": "DT_FLOAT"}}}, {"name": "StatefulPartitionedCall/sequential_2_1/inception_v3_1/conv2d_139_1/convolution/merged_input", "op": "Const", "attr": {"value": {"tensor": {"dtype": "DT_FLOAT", "tensorShape": {"dim": [{"size": "7"}, {"size": "1"}, {"size": "160"}, {"size": "160"}]}}}, "dtype": {"type": "DT_FLOAT"}}}, {"name": "StatefulPartitionedCall/sequential_2_1/inception_v3_1/batch_normalization_139_1/batchnorm/sub", "op": "Const", "attr": {"value": {"tensor": {"dtype": "DT_FLOAT", "tensorShape": {"dim": [{"size": "1"}, {"size": "1"}, {"size": "1"}, {"size": "160"}]}}}, "dtype": {"type": "DT_FLOAT"}}}, {"name": "StatefulPartitionedCall/sequential_2_1/inception_v3_1/conv2d_140_1/convolution/merged_input", "op": "Const", "attr": {"value": {"tensor": {"dtype": "DT_FLOAT", "tensorShape": {"dim": [{"size": "1"}, {"size": "7"}, {"size": "160"}, {"size": "160"}]}}}, "dtype": {"type": "DT_FLOAT"}}}, {"name": "StatefulPartitionedCall/sequential_2_1/inception_v3_1/batch_normalization_140_1/batchnorm/sub", "op": "Const", "attr": {"value": {"tensor": {"dtype": "DT_FLOAT", "tensorShape": {"dim": [{"size": "1"}, {"size": "1"}, {"size": "1"}, {"size": "160"}]}}}, "dtype": {"type": "DT_FLOAT"}}}, {"name": "StatefulPartitionedCall/sequential_2_1/inception_v3_1/conv2d_141_1/convolution/merged_input", "op": "Const", "attr": {"value": {"tensor": {"dtype": "DT_FLOAT", "tensorShape": {"dim": [{"size": "7"}, {"size": "1"}, {"size": "160"}, {"size": "160"}]}}}, "dtype": {"type": "DT_FLOAT"}}}, {"name": "StatefulPartitionedCall/sequential_2_1/inception_v3_1/batch_normalization_141_1/batchnorm/sub", "op": "Const", "attr": {"value": {"tensor": {"dtype": "DT_FLOAT", "tensorShape": {"dim": [{"size": "1"}, {"size": "1"}, {"size": "1"}, {"size": "160"}]}}}, "dtype": {"type": "DT_FLOAT"}}}, {"name": "StatefulPartitionedCall/sequential_2_1/inception_v3_1/conv2d_142_1/convolution/merged_input", "op": "Const", "attr": {"value": {"tensor": {"dtype": "DT_FLOAT", "tensorShape": {"dim": [{"size": "1"}, {"size": "7"}, {"size": "160"}, {"size": "192"}]}}}, "dtype": {"type": "DT_FLOAT"}}}, {"name": "StatefulPartitionedCall/sequential_2_1/inception_v3_1/batch_normalization_142_1/batchnorm/sub", "op": "Const", "attr": {"value": {"tensor": {"dtype": "DT_FLOAT", "tensorShape": {"dim": [{"size": "1"}, {"size": "1"}, {"size": "1"}, {"size": "192"}]}}}, "dtype": {"type": "DT_FLOAT"}}}, {"name": "StatefulPartitionedCall/sequential_2_1/inception_v3_1/conv2d_124_1/convolution/merged_input", "op": "Const", "attr": {"value": {"tensor": {"dtype": "DT_FLOAT", "tensorShape": {"dim": [{"size": "1"}, {"size": "1"}, {"size": "768"}, {"size": "192"}]}}}, "dtype": {"type": "DT_FLOAT"}}}, {"name": "StatefulPartitionedCall/sequential_2_1/inception_v3_1/batch_normalization_124_1/batchnorm/sub", "op": "Const", "attr": {"value": {"tensor": {"dtype": "DT_FLOAT", "tensorShape": {"dim": [{"size": "1"}, {"size": "1"}, {"size": "1"}, {"size": "192"}]}}}, "dtype": {"type": "DT_FLOAT"}}}, {"name": "StatefulPartitionedCall/sequential_2_1/inception_v3_1/conv2d_125_1/convolution/merged_input", "op": "Const", "attr": {"value": {"tensor": {"dtype": "DT_FLOAT", "tensorShape": {"dim": [{"size": "1"}, {"size": "1"}, {"size": "768"}, {"size": "128"}]}}}, "dtype": {"type": "DT_FLOAT"}}}, {"name": "StatefulPartitionedCall/sequential_2_1/inception_v3_1/batch_normalization_125_1/batchnorm/sub", "op": "Const", "attr": {"value": {"tensor": {"dtype": "DT_FLOAT", "tensorShape": {"dim": [{"size": "1"}, {"size": "1"}, {"size": "1"}, {"size": "128"}]}}}, "dtype": {"type": "DT_FLOAT"}}}, {"name": "StatefulPartitionedCall/sequential_2_1/inception_v3_1/conv2d_126_1/convolution/merged_input", "op": "Const", "attr": {"value": {"tensor": {"dtype": "DT_FLOAT", "tensorShape": {"dim": [{"size": "1"}, {"size": "7"}, {"size": "128"}, {"size": "128"}]}}}, "dtype": {"type": "DT_FLOAT"}}}, {"name": "StatefulPartitionedCall/sequential_2_1/inception_v3_1/batch_normalization_126_1/batchnorm/sub", "op": "Const", "attr": {"value": {"tensor": {"dtype": "DT_FLOAT", "tensorShape": {"dim": [{"size": "1"}, {"size": "1"}, {"size": "1"}, {"size": "128"}]}}}, "dtype": {"type": "DT_FLOAT"}}}, {"name": "StatefulPartitionedCall/sequential_2_1/inception_v3_1/conv2d_127_1/convolution/merged_input", "op": "Const", "attr": {"value": {"tensor": {"dtype": "DT_FLOAT", "tensorShape": {"dim": [{"size": "7"}, {"size": "1"}, {"size": "128"}, {"size": "192"}]}}}, "dtype": {"type": "DT_FLOAT"}}}, {"name": "StatefulPartitionedCall/sequential_2_1/inception_v3_1/batch_normalization_127_1/batchnorm/sub", "op": "Const", "attr": {"value": {"tensor": {"dtype": "DT_FLOAT", "tensorShape": {"dim": [{"size": "1"}, {"size": "1"}, {"size": "1"}, {"size": "192"}]}}}, "dtype": {"type": "DT_FLOAT"}}}, {"name": "StatefulPartitionedCall/sequential_2_1/inception_v3_1/conv2d_128_1/convolution/merged_input", "op": "Const", "attr": {"value": {"tensor": {"dtype": "DT_FLOAT", "tensorShape": {"dim": [{"size": "1"}, {"size": "1"}, {"size": "768"}, {"size": "128"}]}}}, "dtype": {"type": "DT_FLOAT"}}}, {"name": "StatefulPartitionedCall/sequential_2_1/inception_v3_1/batch_normalization_128_1/batchnorm/sub", "op": "Const", "attr": {"value": {"tensor": {"dtype": "DT_FLOAT", "tensorShape": {"dim": [{"size": "1"}, {"size": "1"}, {"size": "1"}, {"size": "128"}]}}}, "dtype": {"type": "DT_FLOAT"}}}, {"name": "StatefulPartitionedCall/sequential_2_1/inception_v3_1/conv2d_129_1/convolution/merged_input", "op": "Const", "attr": {"value": {"tensor": {"dtype": "DT_FLOAT", "tensorShape": {"dim": [{"size": "7"}, {"size": "1"}, {"size": "128"}, {"size": "128"}]}}}, "dtype": {"type": "DT_FLOAT"}}}, {"name": "StatefulPartitionedCall/sequential_2_1/inception_v3_1/batch_normalization_129_1/batchnorm/sub", "op": "Const", "attr": {"value": {"tensor": {"dtype": "DT_FLOAT", "tensorShape": {"dim": [{"size": "1"}, {"size": "1"}, {"size": "1"}, {"size": "128"}]}}}, "dtype": {"type": "DT_FLOAT"}}}, {"name": "StatefulPartitionedCall/sequential_2_1/inception_v3_1/conv2d_130_1/convolution/merged_input", "op": "Const", "attr": {"value": {"tensor": {"dtype": "DT_FLOAT", "tensorShape": {"dim": [{"size": "1"}, {"size": "7"}, {"size": "128"}, {"size": "128"}]}}}, "dtype": {"type": "DT_FLOAT"}}}, {"name": "StatefulPartitionedCall/sequential_2_1/inception_v3_1/batch_normalization_130_1/batchnorm/sub", "op": "Const", "attr": {"value": {"tensor": {"dtype": "DT_FLOAT", "tensorShape": {"dim": [{"size": "1"}, {"size": "1"}, {"size": "1"}, {"size": "128"}]}}}, "dtype": {"type": "DT_FLOAT"}}}, {"name": "StatefulPartitionedCall/sequential_2_1/inception_v3_1/conv2d_131_1/convolution/merged_input", "op": "Const", "attr": {"value": {"tensor": {"dtype": "DT_FLOAT", "tensorShape": {"dim": [{"size": "7"}, {"size": "1"}, {"size": "128"}, {"size": "128"}]}}}, "dtype": {"type": "DT_FLOAT"}}}, {"name": "StatefulPartitionedCall/sequential_2_1/inception_v3_1/batch_normalization_131_1/batchnorm/sub", "op": "Const", "attr": {"value": {"tensor": {"dtype": "DT_FLOAT", "tensorShape": {"dim": [{"size": "1"}, {"size": "1"}, {"size": "1"}, {"size": "128"}]}}}, "dtype": {"type": "DT_FLOAT"}}}, {"name": "StatefulPartitionedCall/sequential_2_1/inception_v3_1/conv2d_132_1/convolution/merged_input", "op": "Const", "attr": {"value": {"tensor": {"dtype": "DT_FLOAT", "tensorShape": {"dim": [{"size": "1"}, {"size": "7"}, {"size": "128"}, {"size": "192"}]}}}, "dtype": {"type": "DT_FLOAT"}}}, {"name": "StatefulPartitionedCall/sequential_2_1/inception_v3_1/batch_normalization_132_1/batchnorm/sub", "op": "Const", "attr": {"value": {"tensor": {"dtype": "DT_FLOAT", "tensorShape": {"dim": [{"size": "1"}, {"size": "1"}, {"size": "1"}, {"size": "192"}]}}}, "dtype": {"type": "DT_FLOAT"}}}, {"name": "StatefulPartitionedCall/sequential_2_1/inception_v3_1/conv2d_120_1/convolution/merged_input", "op": "Const", "attr": {"value": {"tensor": {"dtype": "DT_FLOAT", "tensorShape": {"dim": [{"size": "3"}, {"size": "3"}, {"size": "288"}, {"size": "384"}]}}}, "dtype": {"type": "DT_FLOAT"}}}, {"name": "StatefulPartitionedCall/sequential_2_1/inception_v3_1/batch_normalization_120_1/batchnorm/sub", "op": "Const", "attr": {"value": {"tensor": {"dtype": "DT_FLOAT", "tensorShape": {"dim": [{"size": "1"}, {"size": "1"}, {"size": "1"}, {"size": "384"}]}}}, "dtype": {"type": "DT_FLOAT"}}}, {"name": "StatefulPartitionedCall/sequential_2_1/inception_v3_1/conv2d_121_1/convolution/merged_input", "op": "Const", "attr": {"value": {"tensor": {"dtype": "DT_FLOAT", "tensorShape": {"dim": [{"size": "1"}, {"size": "1"}, {"size": "288"}, {"size": "64"}]}}}, "dtype": {"type": "DT_FLOAT"}}}, {"name": "StatefulPartitionedCall/sequential_2_1/inception_v3_1/batch_normalization_121_1/batchnorm/sub", "op": "Const", "attr": {"value": {"tensor": {"dtype": "DT_FLOAT", "tensorShape": {"dim": [{"size": "1"}, {"size": "1"}, {"size": "1"}, {"size": "64"}]}}}, "dtype": {"type": "DT_FLOAT"}}}, {"name": "StatefulPartitionedCall/sequential_2_1/inception_v3_1/conv2d_122_1/convolution/merged_input", "op": "Const", "attr": {"value": {"tensor": {"dtype": "DT_FLOAT", "tensorShape": {"dim": [{"size": "3"}, {"size": "3"}, {"size": "64"}, {"size": "96"}]}}}, "dtype": {"type": "DT_FLOAT"}}}, {"name": "StatefulPartitionedCall/sequential_2_1/inception_v3_1/batch_normalization_122_1/batchnorm/sub", "op": "Const", "attr": {"value": {"tensor": {"dtype": "DT_FLOAT", "tensorShape": {"dim": [{"size": "1"}, {"size": "1"}, {"size": "1"}, {"size": "96"}]}}}, "dtype": {"type": "DT_FLOAT"}}}, {"name": "StatefulPartitionedCall/sequential_2_1/inception_v3_1/conv2d_123_1/convolution/merged_input", "op": "Const", "attr": {"value": {"tensor": {"dtype": "DT_FLOAT", "tensorShape": {"dim": [{"size": "3"}, {"size": "3"}, {"size": "96"}, {"size": "96"}]}}}, "dtype": {"type": "DT_FLOAT"}}}, {"name": "StatefulPartitionedCall/sequential_2_1/inception_v3_1/batch_normalization_123_1/batchnorm/sub", "op": "Const", "attr": {"value": {"tensor": {"dtype": "DT_FLOAT", "tensorShape": {"dim": [{"size": "1"}, {"size": "1"}, {"size": "1"}, {"size": "96"}]}}}, "dtype": {"type": "DT_FLOAT"}}}, {"name": "StatefulPartitionedCall/sequential_2_1/inception_v3_1/conv2d_113_1/convolution/merged_input", "op": "Const", "attr": {"value": {"tensor": {"dtype": "DT_FLOAT", "tensorShape": {"dim": [{"size": "1"}, {"size": "1"}, {"size": "288"}, {"size": "64"}]}}}, "dtype": {"type": "DT_FLOAT"}}}, {"name": "StatefulPartitionedCall/sequential_2_1/inception_v3_1/batch_normalization_113_1/batchnorm/sub", "op": "Const", "attr": {"value": {"tensor": {"dtype": "DT_FLOAT", "tensorShape": {"dim": [{"size": "1"}, {"size": "1"}, {"size": "1"}, {"size": "64"}]}}}, "dtype": {"type": "DT_FLOAT"}}}, {"name": "StatefulPartitionedCall/sequential_2_1/inception_v3_1/conv2d_114_1/convolution/merged_input", "op": "Const", "attr": {"value": {"tensor": {"dtype": "DT_FLOAT", "tensorShape": {"dim": [{"size": "1"}, {"size": "1"}, {"size": "288"}, {"size": "48"}]}}}, "dtype": {"type": "DT_FLOAT"}}}, {"name": "StatefulPartitionedCall/sequential_2_1/inception_v3_1/batch_normalization_114_1/batchnorm/sub", "op": "Const", "attr": {"value": {"tensor": {"dtype": "DT_FLOAT", "tensorShape": {"dim": [{"size": "1"}, {"size": "1"}, {"size": "1"}, {"size": "48"}]}}}, "dtype": {"type": "DT_FLOAT"}}}, {"name": "StatefulPartitionedCall/sequential_2_1/inception_v3_1/conv2d_115_1/convolution/merged_input", "op": "Const", "attr": {"value": {"tensor": {"dtype": "DT_FLOAT", "tensorShape": {"dim": [{"size": "5"}, {"size": "5"}, {"size": "48"}, {"size": "64"}]}}}, "dtype": {"type": "DT_FLOAT"}}}, {"name": "StatefulPartitionedCall/sequential_2_1/inception_v3_1/batch_normalization_115_1/batchnorm/sub", "op": "Const", "attr": {"value": {"tensor": {"dtype": "DT_FLOAT", "tensorShape": {"dim": [{"size": "1"}, {"size": "1"}, {"size": "1"}, {"size": "64"}]}}}, "dtype": {"type": "DT_FLOAT"}}}, {"name": "StatefulPartitionedCall/sequential_2_1/inception_v3_1/conv2d_116_1/convolution/merged_input", "op": "Const", "attr": {"value": {"tensor": {"dtype": "DT_FLOAT", "tensorShape": {"dim": [{"size": "1"}, {"size": "1"}, {"size": "288"}, {"size": "64"}]}}}, "dtype": {"type": "DT_FLOAT"}}}, {"name": "StatefulPartitionedCall/sequential_2_1/inception_v3_1/batch_normalization_116_1/batchnorm/sub", "op": "Const", "attr": {"value": {"tensor": {"dtype": "DT_FLOAT", "tensorShape": {"dim": [{"size": "1"}, {"size": "1"}, {"size": "1"}, {"size": "64"}]}}}, "dtype": {"type": "DT_FLOAT"}}}, {"name": "StatefulPartitionedCall/sequential_2_1/inception_v3_1/conv2d_117_1/convolution/merged_input", "op": "Const", "attr": {"value": {"tensor": {"dtype": "DT_FLOAT", "tensorShape": {"dim": [{"size": "3"}, {"size": "3"}, {"size": "64"}, {"size": "96"}]}}}, "dtype": {"type": "DT_FLOAT"}}}, {"name": "StatefulPartitionedCall/sequential_2_1/inception_v3_1/batch_normalization_117_1/batchnorm/sub", "op": "Const", "attr": {"value": {"tensor": {"dtype": "DT_FLOAT", "tensorShape": {"dim": [{"size": "1"}, {"size": "1"}, {"size": "1"}, {"size": "96"}]}}}, "dtype": {"type": "DT_FLOAT"}}}, {"name": "StatefulPartitionedCall/sequential_2_1/inception_v3_1/conv2d_118_1/convolution/merged_input", "op": "Const", "attr": {"value": {"tensor": {"dtype": "DT_FLOAT", "tensorShape": {"dim": [{"size": "3"}, {"size": "3"}, {"size": "96"}, {"size": "96"}]}}}, "dtype": {"type": "DT_FLOAT"}}}, {"name": "StatefulPartitionedCall/sequential_2_1/inception_v3_1/batch_normalization_118_1/batchnorm/sub", "op": "Const", "attr": {"value": {"tensor": {"dtype": "DT_FLOAT", "tensorShape": {"dim": [{"size": "1"}, {"size": "1"}, {"size": "1"}, {"size": "96"}]}}}, "dtype": {"type": "DT_FLOAT"}}}, {"name": "StatefulPartitionedCall/sequential_2_1/inception_v3_1/conv2d_106_1/convolution/merged_input", "op": "Const", "attr": {"value": {"tensor": {"dtype": "DT_FLOAT", "tensorShape": {"dim": [{"size": "1"}, {"size": "1"}, {"size": "256"}, {"size": "64"}]}}}, "dtype": {"type": "DT_FLOAT"}}}, {"name": "StatefulPartitionedCall/sequential_2_1/inception_v3_1/batch_normalization_106_1/batchnorm/sub", "op": "Const", "attr": {"value": {"tensor": {"dtype": "DT_FLOAT", "tensorShape": {"dim": [{"size": "1"}, {"size": "1"}, {"size": "1"}, {"size": "64"}]}}}, "dtype": {"type": "DT_FLOAT"}}}, {"name": "StatefulPartitionedCall/sequential_2_1/inception_v3_1/conv2d_107_1/convolution/merged_input", "op": "Const", "attr": {"value": {"tensor": {"dtype": "DT_FLOAT", "tensorShape": {"dim": [{"size": "1"}, {"size": "1"}, {"size": "256"}, {"size": "48"}]}}}, "dtype": {"type": "DT_FLOAT"}}}, {"name": "StatefulPartitionedCall/sequential_2_1/inception_v3_1/batch_normalization_107_1/batchnorm/sub", "op": "Const", "attr": {"value": {"tensor": {"dtype": "DT_FLOAT", "tensorShape": {"dim": [{"size": "1"}, {"size": "1"}, {"size": "1"}, {"size": "48"}]}}}, "dtype": {"type": "DT_FLOAT"}}}, {"name": "StatefulPartitionedCall/sequential_2_1/inception_v3_1/conv2d_108_1/convolution/merged_input", "op": "Const", "attr": {"value": {"tensor": {"dtype": "DT_FLOAT", "tensorShape": {"dim": [{"size": "5"}, {"size": "5"}, {"size": "48"}, {"size": "64"}]}}}, "dtype": {"type": "DT_FLOAT"}}}, {"name": "StatefulPartitionedCall/sequential_2_1/inception_v3_1/batch_normalization_108_1/batchnorm/sub", "op": "Const", "attr": {"value": {"tensor": {"dtype": "DT_FLOAT", "tensorShape": {"dim": [{"size": "1"}, {"size": "1"}, {"size": "1"}, {"size": "64"}]}}}, "dtype": {"type": "DT_FLOAT"}}}, {"name": "StatefulPartitionedCall/sequential_2_1/inception_v3_1/conv2d_109_1/convolution/merged_input", "op": "Const", "attr": {"value": {"tensor": {"dtype": "DT_FLOAT", "tensorShape": {"dim": [{"size": "1"}, {"size": "1"}, {"size": "256"}, {"size": "64"}]}}}, "dtype": {"type": "DT_FLOAT"}}}, {"name": "StatefulPartitionedCall/sequential_2_1/inception_v3_1/batch_normalization_109_1/batchnorm/sub", "op": "Const", "attr": {"value": {"tensor": {"dtype": "DT_FLOAT", "tensorShape": {"dim": [{"size": "1"}, {"size": "1"}, {"size": "1"}, {"size": "64"}]}}}, "dtype": {"type": "DT_FLOAT"}}}, {"name": "StatefulPartitionedCall/sequential_2_1/inception_v3_1/conv2d_110_1/convolution/merged_input", "op": "Const", "attr": {"value": {"tensor": {"dtype": "DT_FLOAT", "tensorShape": {"dim": [{"size": "3"}, {"size": "3"}, {"size": "64"}, {"size": "96"}]}}}, "dtype": {"type": "DT_FLOAT"}}}, {"name": "StatefulPartitionedCall/sequential_2_1/inception_v3_1/batch_normalization_110_1/batchnorm/sub", "op": "Const", "attr": {"value": {"tensor": {"dtype": "DT_FLOAT", "tensorShape": {"dim": [{"size": "1"}, {"size": "1"}, {"size": "1"}, {"size": "96"}]}}}, "dtype": {"type": "DT_FLOAT"}}}, {"name": "StatefulPartitionedCall/sequential_2_1/inception_v3_1/conv2d_111_1/convolution/merged_input", "op": "Const", "attr": {"value": {"tensor": {"dtype": "DT_FLOAT", "tensorShape": {"dim": [{"size": "3"}, {"size": "3"}, {"size": "96"}, {"size": "96"}]}}}, "dtype": {"type": "DT_FLOAT"}}}, {"name": "StatefulPartitionedCall/sequential_2_1/inception_v3_1/batch_normalization_111_1/batchnorm/sub", "op": "Const", "attr": {"value": {"tensor": {"dtype": "DT_FLOAT", "tensorShape": {"dim": [{"size": "1"}, {"size": "1"}, {"size": "1"}, {"size": "96"}]}}}, "dtype": {"type": "DT_FLOAT"}}}, {"name": "StatefulPartitionedCall/sequential_2_1/inception_v3_1/conv2d_99_1/convolution/merged_input", "op": "Const", "attr": {"value": {"tensor": {"dtype": "DT_FLOAT", "tensorShape": {"dim": [{"size": "1"}, {"size": "1"}, {"size": "192"}, {"size": "64"}]}}}, "dtype": {"type": "DT_FLOAT"}}}, {"name": "StatefulPartitionedCall/sequential_2_1/inception_v3_1/batch_normalization_99_1/batchnorm/sub", "op": "Const", "attr": {"value": {"tensor": {"dtype": "DT_FLOAT", "tensorShape": {"dim": [{"size": "1"}, {"size": "1"}, {"size": "1"}, {"size": "64"}]}}}, "dtype": {"type": "DT_FLOAT"}}}, {"name": "StatefulPartitionedCall/sequential_2_1/inception_v3_1/conv2d_100_1/convolution/merged_input", "op": "Const", "attr": {"value": {"tensor": {"dtype": "DT_FLOAT", "tensorShape": {"dim": [{"size": "1"}, {"size": "1"}, {"size": "192"}, {"size": "48"}]}}}, "dtype": {"type": "DT_FLOAT"}}}, {"name": "StatefulPartitionedCall/sequential_2_1/inception_v3_1/batch_normalization_100_1/batchnorm/sub", "op": "Const", "attr": {"value": {"tensor": {"dtype": "DT_FLOAT", "tensorShape": {"dim": [{"size": "1"}, {"size": "1"}, {"size": "1"}, {"size": "48"}]}}}, "dtype": {"type": "DT_FLOAT"}}}, {"name": "StatefulPartitionedCall/sequential_2_1/inception_v3_1/conv2d_101_1/convolution/merged_input", "op": "Const", "attr": {"value": {"tensor": {"dtype": "DT_FLOAT", "tensorShape": {"dim": [{"size": "5"}, {"size": "5"}, {"size": "48"}, {"size": "64"}]}}}, "dtype": {"type": "DT_FLOAT"}}}, {"name": "StatefulPartitionedCall/sequential_2_1/inception_v3_1/batch_normalization_101_1/batchnorm/sub", "op": "Const", "attr": {"value": {"tensor": {"dtype": "DT_FLOAT", "tensorShape": {"dim": [{"size": "1"}, {"size": "1"}, {"size": "1"}, {"size": "64"}]}}}, "dtype": {"type": "DT_FLOAT"}}}, {"name": "StatefulPartitionedCall/sequential_2_1/inception_v3_1/conv2d_102_1/convolution/merged_input", "op": "Const", "attr": {"value": {"tensor": {"dtype": "DT_FLOAT", "tensorShape": {"dim": [{"size": "1"}, {"size": "1"}, {"size": "192"}, {"size": "64"}]}}}, "dtype": {"type": "DT_FLOAT"}}}, {"name": "StatefulPartitionedCall/sequential_2_1/inception_v3_1/batch_normalization_102_1/batchnorm/sub", "op": "Const", "attr": {"value": {"tensor": {"dtype": "DT_FLOAT", "tensorShape": {"dim": [{"size": "1"}, {"size": "1"}, {"size": "1"}, {"size": "64"}]}}}, "dtype": {"type": "DT_FLOAT"}}}, {"name": "StatefulPartitionedCall/sequential_2_1/inception_v3_1/conv2d_103_1/convolution/merged_input", "op": "Const", "attr": {"value": {"tensor": {"dtype": "DT_FLOAT", "tensorShape": {"dim": [{"size": "3"}, {"size": "3"}, {"size": "64"}, {"size": "96"}]}}}, "dtype": {"type": "DT_FLOAT"}}}, {"name": "StatefulPartitionedCall/sequential_2_1/inception_v3_1/batch_normalization_103_1/batchnorm/sub", "op": "Const", "attr": {"value": {"tensor": {"dtype": "DT_FLOAT", "tensorShape": {"dim": [{"size": "1"}, {"size": "1"}, {"size": "1"}, {"size": "96"}]}}}, "dtype": {"type": "DT_FLOAT"}}}, {"name": "StatefulPartitionedCall/sequential_2_1/inception_v3_1/conv2d_104_1/convolution/merged_input", "op": "Const", "attr": {"value": {"tensor": {"dtype": "DT_FLOAT", "tensorShape": {"dim": [{"size": "3"}, {"size": "3"}, {"size": "96"}, {"size": "96"}]}}}, "dtype": {"type": "DT_FLOAT"}}}, {"name": "StatefulPartitionedCall/sequential_2_1/inception_v3_1/batch_normalization_104_1/batchnorm/sub", "op": "Const", "attr": {"value": {"tensor": {"dtype": "DT_FLOAT", "tensorShape": {"dim": [{"size": "1"}, {"size": "1"}, {"size": "1"}, {"size": "96"}]}}}, "dtype": {"type": "DT_FLOAT"}}}, {"name": "StatefulPartitionedCall/sequential_2_1/inception_v3_1/conv2d_94_1/convolution/merged_input", "op": "Const", "attr": {"value": {"tensor": {"dtype": "DT_FLOAT", "tensorShape": {"dim": [{"size": "3"}, {"size": "3"}, {"size": "3"}, {"size": "32"}]}}}, "dtype": {"type": "DT_FLOAT"}}}, {"name": "StatefulPartitionedCall/sequential_2_1/inception_v3_1/batch_normalization_94_1/batchnorm/sub", "op": "Const", "attr": {"value": {"tensor": {"dtype": "DT_FLOAT", "tensorShape": {"dim": [{"size": "1"}, {"size": "1"}, {"size": "1"}, {"size": "32"}]}}}, "dtype": {"type": "DT_FLOAT"}}}, {"name": "StatefulPartitionedCall/sequential_2_1/inception_v3_1/conv2d_95_1/convolution/merged_input", "op": "Const", "attr": {"value": {"tensor": {"dtype": "DT_FLOAT", "tensorShape": {"dim": [{"size": "3"}, {"size": "3"}, {"size": "32"}, {"size": "32"}]}}}, "dtype": {"type": "DT_FLOAT"}}}, {"name": "StatefulPartitionedCall/sequential_2_1/inception_v3_1/batch_normalization_95_1/batchnorm/sub", "op": "Const", "attr": {"value": {"tensor": {"dtype": "DT_FLOAT", "tensorShape": {"dim": [{"size": "1"}, {"size": "1"}, {"size": "1"}, {"size": "32"}]}}}, "dtype": {"type": "DT_FLOAT"}}}, {"name": "StatefulPartitionedCall/sequential_2_1/inception_v3_1/conv2d_96_1/convolution/merged_input", "op": "Const", "attr": {"value": {"tensor": {"dtype": "DT_FLOAT", "tensorShape": {"dim": [{"size": "3"}, {"size": "3"}, {"size": "32"}, {"size": "64"}]}}}, "dtype": {"type": "DT_FLOAT"}}}, {"name": "StatefulPartitionedCall/sequential_2_1/inception_v3_1/batch_normalization_96_1/batchnorm/sub", "op": "Const", "attr": {"value": {"tensor": {"dtype": "DT_FLOAT", "tensorShape": {"dim": [{"size": "1"}, {"size": "1"}, {"size": "1"}, {"size": "64"}]}}}, "dtype": {"type": "DT_FLOAT"}}}, {"name": "StatefulPartitionedCall/sequential_2_1/inception_v3_1/conv2d_97_1/convolution/merged_input", "op": "Const", "attr": {"value": {"tensor": {"dtype": "DT_FLOAT", "tensorShape": {"dim": [{"size": "1"}, {"size": "1"}, {"size": "64"}, {"size": "80"}]}}}, "dtype": {"type": "DT_FLOAT"}}}, {"name": "StatefulPartitionedCall/sequential_2_1/inception_v3_1/batch_normalization_97_1/batchnorm/sub", "op": "Const", "attr": {"value": {"tensor": {"dtype": "DT_FLOAT", "tensorShape": {"dim": [{"size": "1"}, {"size": "1"}, {"size": "1"}, {"size": "80"}]}}}, "dtype": {"type": "DT_FLOAT"}}}, {"name": "StatefulPartitionedCall/sequential_2_1/inception_v3_1/conv2d_98_1/convolution/merged_input", "op": "Const", "attr": {"value": {"tensor": {"dtype": "DT_FLOAT", "tensorShape": {"dim": [{"size": "3"}, {"size": "3"}, {"size": "80"}, {"size": "192"}]}}}, "dtype": {"type": "DT_FLOAT"}}}, {"name": "StatefulPartitionedCall/sequential_2_1/inception_v3_1/batch_normalization_98_1/batchnorm/sub", "op": "Const", "attr": {"value": {"tensor": {"dtype": "DT_FLOAT", "tensorShape": {"dim": [{"size": "1"}, {"size": "1"}, {"size": "1"}, {"size": "192"}]}}}, "dtype": {"type": "DT_FLOAT"}}}, {"name": "StatefulPartitionedCall/sequential_2_1/inception_v3_1/conv2d_105_1/convolution/merged_input", "op": "Const", "attr": {"value": {"tensor": {"dtype": "DT_FLOAT", "tensorShape": {"dim": [{"size": "1"}, {"size": "1"}, {"size": "192"}, {"size": "32"}]}}}, "dtype": {"type": "DT_FLOAT"}}}, {"name": "StatefulPartitionedCall/sequential_2_1/inception_v3_1/batch_normalization_105_1/batchnorm/sub", "op": "Const", "attr": {"value": {"tensor": {"dtype": "DT_FLOAT", "tensorShape": {"dim": [{"size": "1"}, {"size": "1"}, {"size": "1"}, {"size": "32"}]}}}, "dtype": {"type": "DT_FLOAT"}}}, {"name": "StatefulPartitionedCall/sequential_2_1/inception_v3_1/mixed0_1/concat/axis", "op": "Const", "attr": {"value": {"tensor": {"dtype": "DT_INT32", "tensorShape": {}}}, "dtype": {"type": "DT_INT32"}}}, {"name": "StatefulPartitionedCall/sequential_2_1/inception_v3_1/conv2d_112_1/convolution/merged_input", "op": "Const", "attr": {"value": {"tensor": {"dtype": "DT_FLOAT", "tensorShape": {"dim": [{"size": "1"}, {"size": "1"}, {"size": "256"}, {"size": "64"}]}}}, "dtype": {"type": "DT_FLOAT"}}}, {"name": "StatefulPartitionedCall/sequential_2_1/inception_v3_1/batch_normalization_112_1/batchnorm/sub", "op": "Const", "attr": {"value": {"tensor": {"dtype": "DT_FLOAT", "tensorShape": {"dim": [{"size": "1"}, {"size": "1"}, {"size": "1"}, {"size": "64"}]}}}, "dtype": {"type": "DT_FLOAT"}}}, {"name": "StatefulPartitionedCall/sequential_2_1/inception_v3_1/mixed1_1/concat/axis", "op": "Const", "attr": {"value": {"tensor": {"dtype": "DT_INT32", "tensorShape": {}}}, "dtype": {"type": "DT_INT32"}}}, {"name": "StatefulPartitionedCall/sequential_2_1/inception_v3_1/conv2d_119_1/convolution/merged_input", "op": "Const", "attr": {"value": {"tensor": {"dtype": "DT_FLOAT", "tensorShape": {"dim": [{"size": "1"}, {"size": "1"}, {"size": "288"}, {"size": "64"}]}}}, "dtype": {"type": "DT_FLOAT"}}}, {"name": "StatefulPartitionedCall/sequential_2_1/inception_v3_1/batch_normalization_119_1/batchnorm/sub", "op": "Const", "attr": {"value": {"tensor": {"dtype": "DT_FLOAT", "tensorShape": {"dim": [{"size": "1"}, {"size": "1"}, {"size": "1"}, {"size": "64"}]}}}, "dtype": {"type": "DT_FLOAT"}}}, {"name": "StatefulPartitionedCall/sequential_2_1/inception_v3_1/mixed2_1/concat/axis", "op": "Const", "attr": {"value": {"tensor": {"dtype": "DT_INT32", "tensorShape": {}}}, "dtype": {"type": "DT_INT32"}}}, {"name": "StatefulPartitionedCall/sequential_2_1/inception_v3_1/mixed3_1/concat/axis", "op": "Const", "attr": {"value": {"tensor": {"dtype": "DT_INT32", "tensorShape": {}}}, "dtype": {"type": "DT_INT32"}}}, {"name": "StatefulPartitionedCall/sequential_2_1/inception_v3_1/conv2d_133_1/convolution/merged_input", "op": "Const", "attr": {"value": {"tensor": {"dtype": "DT_FLOAT", "tensorShape": {"dim": [{"size": "1"}, {"size": "1"}, {"size": "768"}, {"size": "192"}]}}}, "dtype": {"type": "DT_FLOAT"}}}, {"name": "StatefulPartitionedCall/sequential_2_1/inception_v3_1/batch_normalization_133_1/batchnorm/sub", "op": "Const", "attr": {"value": {"tensor": {"dtype": "DT_FLOAT", "tensorShape": {"dim": [{"size": "1"}, {"size": "1"}, {"size": "1"}, {"size": "192"}]}}}, "dtype": {"type": "DT_FLOAT"}}}, {"name": "StatefulPartitionedCall/sequential_2_1/inception_v3_1/mixed4_1/concat/axis", "op": "Const", "attr": {"value": {"tensor": {"dtype": "DT_INT32", "tensorShape": {}}}, "dtype": {"type": "DT_INT32"}}}, {"name": "StatefulPartitionedCall/sequential_2_1/inception_v3_1/conv2d_143_1/convolution/merged_input", "op": "Const", "attr": {"value": {"tensor": {"dtype": "DT_FLOAT", "tensorShape": {"dim": [{"size": "1"}, {"size": "1"}, {"size": "768"}, {"size": "192"}]}}}, "dtype": {"type": "DT_FLOAT"}}}, {"name": "StatefulPartitionedCall/sequential_2_1/inception_v3_1/batch_normalization_143_1/batchnorm/sub", "op": "Const", "attr": {"value": {"tensor": {"dtype": "DT_FLOAT", "tensorShape": {"dim": [{"size": "1"}, {"size": "1"}, {"size": "1"}, {"size": "192"}]}}}, "dtype": {"type": "DT_FLOAT"}}}, {"name": "StatefulPartitionedCall/sequential_2_1/inception_v3_1/mixed5_1/concat/axis", "op": "Const", "attr": {"value": {"tensor": {"dtype": "DT_INT32", "tensorShape": {}}}, "dtype": {"type": "DT_INT32"}}}, {"name": "StatefulPartitionedCall/sequential_2_1/inception_v3_1/conv2d_153_1/convolution/merged_input", "op": "Const", "attr": {"value": {"tensor": {"dtype": "DT_FLOAT", "tensorShape": {"dim": [{"size": "1"}, {"size": "1"}, {"size": "768"}, {"size": "192"}]}}}, "dtype": {"type": "DT_FLOAT"}}}, {"name": "StatefulPartitionedCall/sequential_2_1/inception_v3_1/batch_normalization_153_1/batchnorm/sub", "op": "Const", "attr": {"value": {"tensor": {"dtype": "DT_FLOAT", "tensorShape": {"dim": [{"size": "1"}, {"size": "1"}, {"size": "1"}, {"size": "192"}]}}}, "dtype": {"type": "DT_FLOAT"}}}, {"name": "StatefulPartitionedCall/sequential_2_1/inception_v3_1/mixed6_1/concat/axis", "op": "Const", "attr": {"value": {"tensor": {"dtype": "DT_INT32", "tensorShape": {}}}, "dtype": {"type": "DT_INT32"}}}, {"name": "StatefulPartitionedCall/sequential_2_1/inception_v3_1/conv2d_163_1/convolution/merged_input", "op": "Const", "attr": {"value": {"tensor": {"dtype": "DT_FLOAT", "tensorShape": {"dim": [{"size": "1"}, {"size": "1"}, {"size": "768"}, {"size": "192"}]}}}, "dtype": {"type": "DT_FLOAT"}}}, {"name": "StatefulPartitionedCall/sequential_2_1/inception_v3_1/batch_normalization_163_1/batchnorm/sub", "op": "Const", "attr": {"value": {"tensor": {"dtype": "DT_FLOAT", "tensorShape": {"dim": [{"size": "1"}, {"size": "1"}, {"size": "1"}, {"size": "192"}]}}}, "dtype": {"type": "DT_FLOAT"}}}, {"name": "StatefulPartitionedCall/sequential_2_1/inception_v3_1/mixed7_1/concat/axis", "op": "Const", "attr": {"value": {"tensor": {"dtype": "DT_INT32", "tensorShape": {}}}, "dtype": {"type": "DT_INT32"}}}, {"name": "StatefulPartitionedCall/sequential_2_1/inception_v3_1/mixed8_1/concat/axis", "op": "Const", "attr": {"value": {"tensor": {"dtype": "DT_INT32", "tensorShape": {}}}, "dtype": {"type": "DT_INT32"}}}, {"name": "StatefulPartitionedCall/sequential_2_1/inception_v3_1/conv2d_178_1/convolution/merged_input", "op": "Const", "attr": {"value": {"tensor": {"dtype": "DT_FLOAT", "tensorShape": {"dim": [{"size": "1"}, {"size": "1"}, {"size": "1280"}, {"size": "192"}]}}}, "dtype": {"type": "DT_FLOAT"}}}, {"name": "StatefulPartitionedCall/sequential_2_1/inception_v3_1/batch_normalization_178_1/batchnorm/sub", "op": "Const", "attr": {"value": {"tensor": {"dtype": "DT_FLOAT", "tensorShape": {"dim": [{"size": "1"}, {"size": "1"}, {"size": "1"}, {"size": "192"}]}}}, "dtype": {"type": "DT_FLOAT"}}}, {"name": "StatefulPartitionedCall/sequential_2_1/inception_v3_1/mixed9_1/concat/axis", "op": "Const", "attr": {"value": {"tensor": {"dtype": "DT_INT32", "tensorShape": {}}}, "dtype": {"type": "DT_INT32"}}}, {"name": "StatefulPartitionedCall/sequential_2_1/inception_v3_1/conv2d_187_1/convolution/merged_input", "op": "Const", "attr": {"value": {"tensor": {"dtype": "DT_FLOAT", "tensorShape": {"dim": [{"size": "1"}, {"size": "1"}, {"size": "2048"}, {"size": "192"}]}}}, "dtype": {"type": "DT_FLOAT"}}}, {"name": "StatefulPartitionedCall/sequential_2_1/inception_v3_1/batch_normalization_187_1/batchnorm/sub", "op": "Const", "attr": {"value": {"tensor": {"dtype": "DT_FLOAT", "tensorShape": {"dim": [{"size": "1"}, {"size": "1"}, {"size": "1"}, {"size": "192"}]}}}, "dtype": {"type": "DT_FLOAT"}}}, {"name": "StatefulPartitionedCall/sequential_2_1/inception_v3_1/mixed10_1/concat/axis", "op": "Const", "attr": {"value": {"tensor": {"dtype": "DT_INT32", "tensorShape": {}}}, "dtype": {"type": "DT_INT32"}}}, {"name": "StatefulPartitionedCall/sequential_2_1/flatten_1_1/Reshape/shape", "op": "Const", "attr": {"value": {"tensor": {"dtype": "DT_INT32", "tensorShape": {"dim": [{"size": "2"}]}}}, "dtype": {"type": "DT_INT32"}}}, {"name": "StatefulPartitionedCall/sequential_2_1/dense_3_1/Cast/ReadVariableOp", "op": "Const", "attr": {"value": {"tensor": {"dtype": "DT_FLOAT", "tensorShape": {"dim": [{"size": "51200"}, {"size": "500"}]}}}, "dtype": {"type": "DT_FLOAT"}}}, {"name": "StatefulPartitionedCall/sequential_2_1/dense_3_1/BiasAdd/ReadVariableOp", "op": "Const", "attr": {"value": {"tensor": {"dtype": "DT_FLOAT", "tensorShape": {"dim": [{"size": "500"}]}}}, "dtype": {"type": "DT_FLOAT"}}}, {"name": "StatefulPartitionedCall/sequential_2_1/dense_4_1/Cast/ReadVariableOp", "op": "Const", "attr": {"value": {"tensor": {"dtype": "DT_FLOAT", "tensorShape": {"dim": [{"size": "500"}, {"size": "200"}]}}}, "dtype": {"type": "DT_FLOAT"}}}, {"name": "StatefulPartitionedCall/sequential_2_1/dense_4_1/BiasAdd/ReadVariableOp", "op": "Const", "attr": {"value": {"tensor": {"dtype": "DT_FLOAT", "tensorShape": {"dim": [{"size": "200"}]}}}, "dtype": {"type": "DT_FLOAT"}}}, {"name": "StatefulPartitionedCall/sequential_2_1/dense_5_1/Cast/ReadVariableOp", "op": "Const", "attr": {"value": {"tensor": {"dtype": "DT_FLOAT", "tensorShape": {"dim": [{"size": "200"}, {"size": "4"}]}}}, "dtype": {"type": "DT_FLOAT"}}}, {"name": "StatefulPartitionedCall/sequential_2_1/dense_5_1/BiasAdd/ReadVariableOp", "op": "Const", "attr": {"value": {"tensor": {"dtype": "DT_FLOAT", "tensorShape": {"dim": [{"size": "4"}]}}}, "dtype": {"type": "DT_FLOAT"}}}, {"name": "input_layer_3", "op": "Placeholder", "attr": {"shape": {"shape": {"dim": [{"size": "-1"}, {"size": "224"}, {"size": "224"}, {"size": "3"}]}}, "dtype": {"type": "DT_FLOAT"}}}, {"name": "StatefulPartitionedCall/sequential_2_1/inception_v3_1/activation_94_1/Relu", "op": "_FusedConv2D", "input": ["input_layer_3", "StatefulPartitionedCall/sequential_2_1/inception_v3_1/conv2d_94_1/convolution/merged_input", "StatefulPartitionedCall/sequential_2_1/inception_v3_1/batch_normalization_94_1/batchnorm/sub"], "device": "/device:CPU:0", "attr": {"num_host_args": {"i": "0"}, "data_format": {"s": "TkhXQw=="}, "filter_format": {"s": "SFdJTw=="}, "strides": {"list": {"i": ["1", "2", "2", "1"]}}, "num_args": {"i": "1"}, "fused_ops": {"list": {"s": ["Qmlhc0FkZA==", "UmVsdQ=="]}}, "TArgs": {"list": {"type": ["DT_FLOAT"]}}, "padding": {"s": "VkFMSUQ="}, "use_cudnn_on_gpu": {"b": true}, "leakyrelu_alpha": {"f": 0.2}, "epsilon": {"f": 0.0}, "T": {"type": "DT_FLOAT"}, "explicit_paddings": {"list": {}}, "dilations": {"list": {"i": ["1", "1", "1", "1"]}}}}, {"name": "StatefulPartitionedCall/sequential_2_1/inception_v3_1/activation_95_1/Relu", "op": "_FusedConv2D", "input": ["StatefulPartitionedCall/sequential_2_1/inception_v3_1/activation_94_1/Relu", "StatefulPartitionedCall/sequential_2_1/inception_v3_1/conv2d_95_1/convolution/merged_input", "StatefulPartitionedCall/sequential_2_1/inception_v3_1/batch_normalization_95_1/batchnorm/sub"], "device": "/device:CPU:0", "attr": {"num_host_args": {"i": "0"}, "data_format": {"s": "TkhXQw=="}, "filter_format": {"s": "SFdJTw=="}, "strides": {"list": {"i": ["1", "1", "1", "1"]}}, "num_args": {"i": "1"}, "fused_ops": {"list": {"s": ["Qmlhc0FkZA==", "UmVsdQ=="]}}, "TArgs": {"list": {"type": ["DT_FLOAT"]}}, "padding": {"s": "VkFMSUQ="}, "use_cudnn_on_gpu": {"b": true}, "leakyrelu_alpha": {"f": 0.2}, "epsilon": {"f": 0.0}, "T": {"type": "DT_FLOAT"}, "explicit_paddings": {"list": {}}, "dilations": {"list": {"i": ["1", "1", "1", "1"]}}}}, {"name": "StatefulPartitionedCall/sequential_2_1/inception_v3_1/batch_normalization_96_1/batchnorm/add_1", "op": "_FusedConv2D", "input": ["StatefulPartitionedCall/sequential_2_1/inception_v3_1/activation_95_1/Relu", "StatefulPartitionedCall/sequential_2_1/inception_v3_1/conv2d_96_1/convolution/merged_input", "StatefulPartitionedCall/sequential_2_1/inception_v3_1/batch_normalization_96_1/batchnorm/sub"], "device": "/device:CPU:0", "attr": {"num_host_args": {"i": "0"}, "data_format": {"s": "TkhXQw=="}, "filter_format": {"s": "SFdJTw=="}, "strides": {"list": {"i": ["1", "1", "1", "1"]}}, "num_args": {"i": "1"}, "fused_ops": {"list": {"s": ["Qmlhc0FkZA=="]}}, "TArgs": {"list": {"type": ["DT_FLOAT"]}}, "padding": {"s": "U0FNRQ=="}, "use_cudnn_on_gpu": {"b": true}, "leakyrelu_alpha": {"f": 0.2}, "epsilon": {"f": 0.0}, "T": {"type": "DT_FLOAT"}, "explicit_paddings": {"list": {}}, "dilations": {"list": {"i": ["1", "1", "1", "1"]}}}}, {"name": "StatefulPartitionedCall/sequential_2_1/inception_v3_1/max_pooling2d_4_1/MaxPool2d", "op": "MaxPool", "input": ["StatefulPartitionedCall/sequential_2_1/inception_v3_1/batch_normalization_96_1/batchnorm/add_1"], "attr": {"ksize": {"list": {"i": ["1", "3", "3", "1"]}}, "data_format": {"s": "TkhXQw=="}, "T": {"type": "DT_FLOAT"}, "explicit_paddings": {"list": {}}, "padding": {"s": "VkFMSUQ="}, "strides": {"list": {"i": ["1", "2", "2", "1"]}}}}, {"name": "StatefulPartitionedCall/sequential_2_1/inception_v3_1/activation_96_1/Relu", "op": "Relu", "input": ["StatefulPartitionedCall/sequential_2_1/inception_v3_1/max_pooling2d_4_1/MaxPool2d"], "attr": {"T": {"type": "DT_FLOAT"}}}, {"name": "StatefulPartitionedCall/sequential_2_1/inception_v3_1/activation_97_1/Relu", "op": "_FusedConv2D", "input": ["StatefulPartitionedCall/sequential_2_1/inception_v3_1/activation_96_1/Relu", "StatefulPartitionedCall/sequential_2_1/inception_v3_1/conv2d_97_1/convolution/merged_input", "StatefulPartitionedCall/sequential_2_1/inception_v3_1/batch_normalization_97_1/batchnorm/sub"], "device": "/device:CPU:0", "attr": {"num_host_args": {"i": "0"}, "data_format": {"s": "TkhXQw=="}, "filter_format": {"s": "SFdJTw=="}, "fused_ops": {"list": {"s": ["Qmlhc0FkZA==", "UmVsdQ=="]}}, "num_args": {"i": "1"}, "strides": {"list": {"i": ["1", "1", "1", "1"]}}, "TArgs": {"list": {"type": ["DT_FLOAT"]}}, "padding": {"s": "VkFMSUQ="}, "use_cudnn_on_gpu": {"b": true}, "leakyrelu_alpha": {"f": 0.2}, "epsilon": {"f": 0.0}, "T": {"type": "DT_FLOAT"}, "explicit_paddings": {"list": {}}, "dilations": {"list": {"i": ["1", "1", "1", "1"]}}}}, {"name": "StatefulPartitionedCall/sequential_2_1/inception_v3_1/batch_normalization_98_1/batchnorm/add_1", "op": "_FusedConv2D", "input": ["StatefulPartitionedCall/sequential_2_1/inception_v3_1/activation_97_1/Relu", "StatefulPartitionedCall/sequential_2_1/inception_v3_1/conv2d_98_1/convolution/merged_input", "StatefulPartitionedCall/sequential_2_1/inception_v3_1/batch_normalization_98_1/batchnorm/sub"], "device": "/device:CPU:0", "attr": {"num_host_args": {"i": "0"}, "data_format": {"s": "TkhXQw=="}, "filter_format": {"s": "SFdJTw=="}, "fused_ops": {"list": {"s": ["Qmlhc0FkZA=="]}}, "num_args": {"i": "1"}, "strides": {"list": {"i": ["1", "1", "1", "1"]}}, "TArgs": {"list": {"type": ["DT_FLOAT"]}}, "padding": {"s": "VkFMSUQ="}, "use_cudnn_on_gpu": {"b": true}, "leakyrelu_alpha": {"f": 0.2}, "epsilon": {"f": 0.0}, "T": {"type": "DT_FLOAT"}, "explicit_paddings": {"list": {}}, "dilations": {"list": {"i": ["1", "1", "1", "1"]}}}}, {"name": "StatefulPartitionedCall/sequential_2_1/inception_v3_1/max_pooling2d_5_1/MaxPool2d", "op": "MaxPool", "input": ["StatefulPartitionedCall/sequential_2_1/inception_v3_1/batch_normalization_98_1/batchnorm/add_1"], "attr": {"padding": {"s": "VkFMSUQ="}, "data_format": {"s": "TkhXQw=="}, "T": {"type": "DT_FLOAT"}, "explicit_paddings": {"list": {}}, "ksize": {"list": {"i": ["1", "3", "3", "1"]}}, "strides": {"list": {"i": ["1", "2", "2", "1"]}}}}, {"name": "StatefulPartitionedCall/sequential_2_1/inception_v3_1/activation_98_1/Relu", "op": "Relu", "input": ["StatefulPartitionedCall/sequential_2_1/inception_v3_1/max_pooling2d_5_1/MaxPool2d"], "attr": {"T": {"type": "DT_FLOAT"}}}, {"name": "StatefulPartitionedCall/sequential_2_1/inception_v3_1/batch_normalization_99_1/batchnorm/add_1", "op": "_FusedConv2D", "input": ["StatefulPartitionedCall/sequential_2_1/inception_v3_1/activation_98_1/Relu", "StatefulPartitionedCall/sequential_2_1/inception_v3_1/conv2d_99_1/convolution/merged_input", "StatefulPartitionedCall/sequential_2_1/inception_v3_1/batch_normalization_99_1/batchnorm/sub"], "device": "/device:CPU:0", "attr": {"num_host_args": {"i": "0"}, "data_format": {"s": "TkhXQw=="}, "filter_format": {"s": "SFdJTw=="}, "strides": {"list": {"i": ["1", "1", "1", "1"]}}, "num_args": {"i": "1"}, "fused_ops": {"list": {"s": ["Qmlhc0FkZA=="]}}, "TArgs": {"list": {"type": ["DT_FLOAT"]}}, "padding": {"s": "U0FNRQ=="}, "use_cudnn_on_gpu": {"b": true}, "leakyrelu_alpha": {"f": 0.2}, "epsilon": {"f": 0.0}, "T": {"type": "DT_FLOAT"}, "explicit_paddings": {"list": {}}, "dilations": {"list": {"i": ["1", "1", "1", "1"]}}}}, {"name": "StatefulPartitionedCall/sequential_2_1/inception_v3_1/activation_100_1/Relu", "op": "_FusedConv2D", "input": ["StatefulPartitionedCall/sequential_2_1/inception_v3_1/activation_98_1/Relu", "StatefulPartitionedCall/sequential_2_1/inception_v3_1/conv2d_100_1/convolution/merged_input", "StatefulPartitionedCall/sequential_2_1/inception_v3_1/batch_normalization_100_1/batchnorm/sub"], "device": "/device:CPU:0", "attr": {"num_host_args": {"i": "0"}, "data_format": {"s": "TkhXQw=="}, "filter_format": {"s": "SFdJTw=="}, "strides": {"list": {"i": ["1", "1", "1", "1"]}}, "num_args": {"i": "1"}, "fused_ops": {"list": {"s": ["Qmlhc0FkZA==", "UmVsdQ=="]}}, "TArgs": {"list": {"type": ["DT_FLOAT"]}}, "padding": {"s": "U0FNRQ=="}, "use_cudnn_on_gpu": {"b": true}, "leakyrelu_alpha": {"f": 0.2}, "epsilon": {"f": 0.0}, "T": {"type": "DT_FLOAT"}, "explicit_paddings": {"list": {}}, "dilations": {"list": {"i": ["1", "1", "1", "1"]}}}}, {"name": "StatefulPartitionedCall/sequential_2_1/inception_v3_1/activation_102_1/Relu", "op": "_FusedConv2D", "input": ["StatefulPartitionedCall/sequential_2_1/inception_v3_1/activation_98_1/Relu", "StatefulPartitionedCall/sequential_2_1/inception_v3_1/conv2d_102_1/convolution/merged_input", "StatefulPartitionedCall/sequential_2_1/inception_v3_1/batch_normalization_102_1/batchnorm/sub"], "device": "/device:CPU:0", "attr": {"num_host_args": {"i": "0"}, "data_format": {"s": "TkhXQw=="}, "filter_format": {"s": "SFdJTw=="}, "fused_ops": {"list": {"s": ["Qmlhc0FkZA==", "UmVsdQ=="]}}, "num_args": {"i": "1"}, "strides": {"list": {"i": ["1", "1", "1", "1"]}}, "TArgs": {"list": {"type": ["DT_FLOAT"]}}, "padding": {"s": "U0FNRQ=="}, "use_cudnn_on_gpu": {"b": true}, "leakyrelu_alpha": {"f": 0.2}, "epsilon": {"f": 0.0}, "T": {"type": "DT_FLOAT"}, "explicit_paddings": {"list": {}}, "dilations": {"list": {"i": ["1", "1", "1", "1"]}}}}, {"name": "StatefulPartitionedCall/sequential_2_1/inception_v3_1/average_pooling2d_9_1/AvgPool", "op": "AvgPool", "input": ["StatefulPartitionedCall/sequential_2_1/inception_v3_1/activation_98_1/Relu"], "attr": {"padding": {"s": "U0FNRQ=="}, "data_format": {"s": "TkhXQw=="}, "T": {"type": "DT_FLOAT"}, "ksize": {"list": {"i": ["1", "3", "3", "1"]}}, "strides": {"list": {"i": ["1", "1", "1", "1"]}}}}, {"name": "StatefulPartitionedCall/sequential_2_1/inception_v3_1/batch_normalization_101_1/batchnorm/add_1", "op": "_FusedConv2D", "input": ["StatefulPartitionedCall/sequential_2_1/inception_v3_1/activation_100_1/Relu", "StatefulPartitionedCall/sequential_2_1/inception_v3_1/conv2d_101_1/convolution/merged_input", "StatefulPartitionedCall/sequential_2_1/inception_v3_1/batch_normalization_101_1/batchnorm/sub"], "device": "/device:CPU:0", "attr": {"num_host_args": {"i": "0"}, "data_format": {"s": "TkhXQw=="}, "filter_format": {"s": "SFdJTw=="}, "fused_ops": {"list": {"s": ["Qmlhc0FkZA=="]}}, "num_args": {"i": "1"}, "strides": {"list": {"i": ["1", "1", "1", "1"]}}, "TArgs": {"list": {"type": ["DT_FLOAT"]}}, "padding": {"s": "U0FNRQ=="}, "use_cudnn_on_gpu": {"b": true}, "leakyrelu_alpha": {"f": 0.2}, "epsilon": {"f": 0.0}, "T": {"type": "DT_FLOAT"}, "explicit_paddings": {"list": {}}, "dilations": {"list": {"i": ["1", "1", "1", "1"]}}}}, {"name": "StatefulPartitionedCall/sequential_2_1/inception_v3_1/activation_103_1/Relu", "op": "_FusedConv2D", "input": ["StatefulPartitionedCall/sequential_2_1/inception_v3_1/activation_102_1/Relu", "StatefulPartitionedCall/sequential_2_1/inception_v3_1/conv2d_103_1/convolution/merged_input", "StatefulPartitionedCall/sequential_2_1/inception_v3_1/batch_normalization_103_1/batchnorm/sub"], "device": "/device:CPU:0", "attr": {"num_host_args": {"i": "0"}, "data_format": {"s": "TkhXQw=="}, "filter_format": {"s": "SFdJTw=="}, "strides": {"list": {"i": ["1", "1", "1", "1"]}}, "num_args": {"i": "1"}, "fused_ops": {"list": {"s": ["Qmlhc0FkZA==", "UmVsdQ=="]}}, "TArgs": {"list": {"type": ["DT_FLOAT"]}}, "padding": {"s": "U0FNRQ=="}, "use_cudnn_on_gpu": {"b": true}, "leakyrelu_alpha": {"f": 0.2}, "epsilon": {"f": 0.0}, "T": {"type": "DT_FLOAT"}, "explicit_paddings": {"list": {}}, "dilations": {"list": {"i": ["1", "1", "1", "1"]}}}}, {"name": "StatefulPartitionedCall/sequential_2_1/inception_v3_1/batch_normalization_105_1/batchnorm/add_1", "op": "_FusedConv2D", "input": ["StatefulPartitionedCall/sequential_2_1/inception_v3_1/average_pooling2d_9_1/AvgPool", "StatefulPartitionedCall/sequential_2_1/inception_v3_1/conv2d_105_1/convolution/merged_input", "StatefulPartitionedCall/sequential_2_1/inception_v3_1/batch_normalization_105_1/batchnorm/sub"], "device": "/device:CPU:0", "attr": {"num_host_args": {"i": "0"}, "data_format": {"s": "TkhXQw=="}, "filter_format": {"s": "SFdJTw=="}, "fused_ops": {"list": {"s": ["Qmlhc0FkZA=="]}}, "num_args": {"i": "1"}, "strides": {"list": {"i": ["1", "1", "1", "1"]}}, "TArgs": {"list": {"type": ["DT_FLOAT"]}}, "padding": {"s": "U0FNRQ=="}, "use_cudnn_on_gpu": {"b": true}, "leakyrelu_alpha": {"f": 0.2}, "epsilon": {"f": 0.0}, "T": {"type": "DT_FLOAT"}, "explicit_paddings": {"list": {}}, "dilations": {"list": {"i": ["1", "1", "1", "1"]}}}}, {"name": "StatefulPartitionedCall/sequential_2_1/inception_v3_1/batch_normalization_104_1/batchnorm/add_1", "op": "_FusedConv2D", "input": ["StatefulPartitionedCall/sequential_2_1/inception_v3_1/activation_103_1/Relu", "StatefulPartitionedCall/sequential_2_1/inception_v3_1/conv2d_104_1/convolution/merged_input", "StatefulPartitionedCall/sequential_2_1/inception_v3_1/batch_normalization_104_1/batchnorm/sub"], "device": "/device:CPU:0", "attr": {"num_host_args": {"i": "0"}, "data_format": {"s": "TkhXQw=="}, "filter_format": {"s": "SFdJTw=="}, "fused_ops": {"list": {"s": ["Qmlhc0FkZA=="]}}, "num_args": {"i": "1"}, "strides": {"list": {"i": ["1", "1", "1", "1"]}}, "TArgs": {"list": {"type": ["DT_FLOAT"]}}, "padding": {"s": "U0FNRQ=="}, "use_cudnn_on_gpu": {"b": true}, "leakyrelu_alpha": {"f": 0.2}, "epsilon": {"f": 0.0}, "T": {"type": "DT_FLOAT"}, "explicit_paddings": {"list": {}}, "dilations": {"list": {"i": ["1", "1", "1", "1"]}}}}, {"name": "StatefulPartitionedCall/sequential_2_1/inception_v3_1/mixed0_1/concat", "op": "ConcatV2", "input": ["StatefulPartitionedCall/sequential_2_1/inception_v3_1/batch_normalization_99_1/batchnorm/add_1", "StatefulPartitionedCall/sequential_2_1/inception_v3_1/batch_normalization_101_1/batchnorm/add_1", "StatefulPartitionedCall/sequential_2_1/inception_v3_1/batch_normalization_104_1/batchnorm/add_1", "StatefulPartitionedCall/sequential_2_1/inception_v3_1/batch_normalization_105_1/batchnorm/add_1", "StatefulPartitionedCall/sequential_2_1/inception_v3_1/mixed0_1/concat/axis"], "attr": {"N": {"i": "4"}, "T": {"type": "DT_FLOAT"}, "Tidx": {"type": "DT_INT32"}}}, {"name": "StatefulPartitionedCall/sequential_2_1/inception_v3_1/activation_99_1/Relu", "op": "Relu", "input": ["StatefulPartitionedCall/sequential_2_1/inception_v3_1/mixed0_1/concat"], "attr": {"T": {"type": "DT_FLOAT"}}}, {"name": "StatefulPartitionedCall/sequential_2_1/inception_v3_1/batch_normalization_106_1/batchnorm/add_1", "op": "_FusedConv2D", "input": ["StatefulPartitionedCall/sequential_2_1/inception_v3_1/activation_99_1/Relu", "StatefulPartitionedCall/sequential_2_1/inception_v3_1/conv2d_106_1/convolution/merged_input", "StatefulPartitionedCall/sequential_2_1/inception_v3_1/batch_normalization_106_1/batchnorm/sub"], "device": "/device:CPU:0", "attr": {"num_host_args": {"i": "0"}, "data_format": {"s": "TkhXQw=="}, "filter_format": {"s": "SFdJTw=="}, "fused_ops": {"list": {"s": ["Qmlhc0FkZA=="]}}, "num_args": {"i": "1"}, "strides": {"list": {"i": ["1", "1", "1", "1"]}}, "TArgs": {"list": {"type": ["DT_FLOAT"]}}, "padding": {"s": "U0FNRQ=="}, "use_cudnn_on_gpu": {"b": true}, "leakyrelu_alpha": {"f": 0.2}, "epsilon": {"f": 0.0}, "T": {"type": "DT_FLOAT"}, "explicit_paddings": {"list": {}}, "dilations": {"list": {"i": ["1", "1", "1", "1"]}}}}, {"name": "StatefulPartitionedCall/sequential_2_1/inception_v3_1/activation_107_1/Relu", "op": "_FusedConv2D", "input": ["StatefulPartitionedCall/sequential_2_1/inception_v3_1/activation_99_1/Relu", "StatefulPartitionedCall/sequential_2_1/inception_v3_1/conv2d_107_1/convolution/merged_input", "StatefulPartitionedCall/sequential_2_1/inception_v3_1/batch_normalization_107_1/batchnorm/sub"], "device": "/device:CPU:0", "attr": {"num_host_args": {"i": "0"}, "data_format": {"s": "TkhXQw=="}, "filter_format": {"s": "SFdJTw=="}, "fused_ops": {"list": {"s": ["Qmlhc0FkZA==", "UmVsdQ=="]}}, "num_args": {"i": "1"}, "strides": {"list": {"i": ["1", "1", "1", "1"]}}, "TArgs": {"list": {"type": ["DT_FLOAT"]}}, "padding": {"s": "U0FNRQ=="}, "use_cudnn_on_gpu": {"b": true}, "leakyrelu_alpha": {"f": 0.2}, "epsilon": {"f": 0.0}, "T": {"type": "DT_FLOAT"}, "explicit_paddings": {"list": {}}, "dilations": {"list": {"i": ["1", "1", "1", "1"]}}}}, {"name": "StatefulPartitionedCall/sequential_2_1/inception_v3_1/activation_109_1/Relu", "op": "_FusedConv2D", "input": ["StatefulPartitionedCall/sequential_2_1/inception_v3_1/activation_99_1/Relu", "StatefulPartitionedCall/sequential_2_1/inception_v3_1/conv2d_109_1/convolution/merged_input", "StatefulPartitionedCall/sequential_2_1/inception_v3_1/batch_normalization_109_1/batchnorm/sub"], "device": "/device:CPU:0", "attr": {"num_host_args": {"i": "0"}, "data_format": {"s": "TkhXQw=="}, "filter_format": {"s": "SFdJTw=="}, "strides": {"list": {"i": ["1", "1", "1", "1"]}}, "num_args": {"i": "1"}, "fused_ops": {"list": {"s": ["Qmlhc0FkZA==", "UmVsdQ=="]}}, "TArgs": {"list": {"type": ["DT_FLOAT"]}}, "padding": {"s": "U0FNRQ=="}, "use_cudnn_on_gpu": {"b": true}, "leakyrelu_alpha": {"f": 0.2}, "epsilon": {"f": 0.0}, "T": {"type": "DT_FLOAT"}, "explicit_paddings": {"list": {}}, "dilations": {"list": {"i": ["1", "1", "1", "1"]}}}}, {"name": "StatefulPartitionedCall/sequential_2_1/inception_v3_1/average_pooling2d_10_1/AvgPool", "op": "AvgPool", "input": ["StatefulPartitionedCall/sequential_2_1/inception_v3_1/activation_99_1/Relu"], "attr": {"ksize": {"list": {"i": ["1", "3", "3", "1"]}}, "data_format": {"s": "TkhXQw=="}, "T": {"type": "DT_FLOAT"}, "padding": {"s": "U0FNRQ=="}, "strides": {"list": {"i": ["1", "1", "1", "1"]}}}}, {"name": "StatefulPartitionedCall/sequential_2_1/inception_v3_1/batch_normalization_108_1/batchnorm/add_1", "op": "_FusedConv2D", "input": ["StatefulPartitionedCall/sequential_2_1/inception_v3_1/activation_107_1/Relu", "StatefulPartitionedCall/sequential_2_1/inception_v3_1/conv2d_108_1/convolution/merged_input", "StatefulPartitionedCall/sequential_2_1/inception_v3_1/batch_normalization_108_1/batchnorm/sub"], "device": "/device:CPU:0", "attr": {"num_host_args": {"i": "0"}, "data_format": {"s": "TkhXQw=="}, "filter_format": {"s": "SFdJTw=="}, "strides": {"list": {"i": ["1", "1", "1", "1"]}}, "num_args": {"i": "1"}, "fused_ops": {"list": {"s": ["Qmlhc0FkZA=="]}}, "TArgs": {"list": {"type": ["DT_FLOAT"]}}, "padding": {"s": "U0FNRQ=="}, "use_cudnn_on_gpu": {"b": true}, "leakyrelu_alpha": {"f": 0.2}, "epsilon": {"f": 0.0}, "T": {"type": "DT_FLOAT"}, "explicit_paddings": {"list": {}}, "dilations": {"list": {"i": ["1", "1", "1", "1"]}}}}, {"name": "StatefulPartitionedCall/sequential_2_1/inception_v3_1/activation_110_1/Relu", "op": "_FusedConv2D", "input": ["StatefulPartitionedCall/sequential_2_1/inception_v3_1/activation_109_1/Relu", "StatefulPartitionedCall/sequential_2_1/inception_v3_1/conv2d_110_1/convolution/merged_input", "StatefulPartitionedCall/sequential_2_1/inception_v3_1/batch_normalization_110_1/batchnorm/sub"], "device": "/device:CPU:0", "attr": {"num_host_args": {"i": "0"}, "data_format": {"s": "TkhXQw=="}, "filter_format": {"s": "SFdJTw=="}, "strides": {"list": {"i": ["1", "1", "1", "1"]}}, "num_args": {"i": "1"}, "fused_ops": {"list": {"s": ["Qmlhc0FkZA==", "UmVsdQ=="]}}, "TArgs": {"list": {"type": ["DT_FLOAT"]}}, "padding": {"s": "U0FNRQ=="}, "use_cudnn_on_gpu": {"b": true}, "leakyrelu_alpha": {"f": 0.2}, "epsilon": {"f": 0.0}, "T": {"type": "DT_FLOAT"}, "explicit_paddings": {"list": {}}, "dilations": {"list": {"i": ["1", "1", "1", "1"]}}}}, {"name": "StatefulPartitionedCall/sequential_2_1/inception_v3_1/batch_normalization_112_1/batchnorm/add_1", "op": "_FusedConv2D", "input": ["StatefulPartitionedCall/sequential_2_1/inception_v3_1/average_pooling2d_10_1/AvgPool", "StatefulPartitionedCall/sequential_2_1/inception_v3_1/conv2d_112_1/convolution/merged_input", "StatefulPartitionedCall/sequential_2_1/inception_v3_1/batch_normalization_112_1/batchnorm/sub"], "device": "/device:CPU:0", "attr": {"num_host_args": {"i": "0"}, "data_format": {"s": "TkhXQw=="}, "filter_format": {"s": "SFdJTw=="}, "fused_ops": {"list": {"s": ["Qmlhc0FkZA=="]}}, "num_args": {"i": "1"}, "strides": {"list": {"i": ["1", "1", "1", "1"]}}, "TArgs": {"list": {"type": ["DT_FLOAT"]}}, "padding": {"s": "U0FNRQ=="}, "use_cudnn_on_gpu": {"b": true}, "leakyrelu_alpha": {"f": 0.2}, "epsilon": {"f": 0.0}, "T": {"type": "DT_FLOAT"}, "explicit_paddings": {"list": {}}, "dilations": {"list": {"i": ["1", "1", "1", "1"]}}}}, {"name": "StatefulPartitionedCall/sequential_2_1/inception_v3_1/batch_normalization_111_1/batchnorm/add_1", "op": "_FusedConv2D", "input": ["StatefulPartitionedCall/sequential_2_1/inception_v3_1/activation_110_1/Relu", "StatefulPartitionedCall/sequential_2_1/inception_v3_1/conv2d_111_1/convolution/merged_input", "StatefulPartitionedCall/sequential_2_1/inception_v3_1/batch_normalization_111_1/batchnorm/sub"], "device": "/device:CPU:0", "attr": {"num_host_args": {"i": "0"}, "data_format": {"s": "TkhXQw=="}, "filter_format": {"s": "SFdJTw=="}, "strides": {"list": {"i": ["1", "1", "1", "1"]}}, "num_args": {"i": "1"}, "fused_ops": {"list": {"s": ["Qmlhc0FkZA=="]}}, "TArgs": {"list": {"type": ["DT_FLOAT"]}}, "padding": {"s": "U0FNRQ=="}, "use_cudnn_on_gpu": {"b": true}, "leakyrelu_alpha": {"f": 0.2}, "epsilon": {"f": 0.0}, "T": {"type": "DT_FLOAT"}, "explicit_paddings": {"list": {}}, "dilations": {"list": {"i": ["1", "1", "1", "1"]}}}}, {"name": "StatefulPartitionedCall/sequential_2_1/inception_v3_1/mixed1_1/concat", "op": "ConcatV2", "input": ["StatefulPartitionedCall/sequential_2_1/inception_v3_1/batch_normalization_106_1/batchnorm/add_1", "StatefulPartitionedCall/sequential_2_1/inception_v3_1/batch_normalization_108_1/batchnorm/add_1", "StatefulPartitionedCall/sequential_2_1/inception_v3_1/batch_normalization_111_1/batchnorm/add_1", "StatefulPartitionedCall/sequential_2_1/inception_v3_1/batch_normalization_112_1/batchnorm/add_1", "StatefulPartitionedCall/sequential_2_1/inception_v3_1/mixed1_1/concat/axis"], "attr": {"N": {"i": "4"}, "T": {"type": "DT_FLOAT"}, "Tidx": {"type": "DT_INT32"}}}, {"name": "StatefulPartitionedCall/sequential_2_1/inception_v3_1/activation_106_1/Relu", "op": "Relu", "input": ["StatefulPartitionedCall/sequential_2_1/inception_v3_1/mixed1_1/concat"], "attr": {"T": {"type": "DT_FLOAT"}}}, {"name": "StatefulPartitionedCall/sequential_2_1/inception_v3_1/batch_normalization_113_1/batchnorm/add_1", "op": "_FusedConv2D", "input": ["StatefulPartitionedCall/sequential_2_1/inception_v3_1/activation_106_1/Relu", "StatefulPartitionedCall/sequential_2_1/inception_v3_1/conv2d_113_1/convolution/merged_input", "StatefulPartitionedCall/sequential_2_1/inception_v3_1/batch_normalization_113_1/batchnorm/sub"], "device": "/device:CPU:0", "attr": {"num_host_args": {"i": "0"}, "data_format": {"s": "TkhXQw=="}, "filter_format": {"s": "SFdJTw=="}, "fused_ops": {"list": {"s": ["Qmlhc0FkZA=="]}}, "num_args": {"i": "1"}, "strides": {"list": {"i": ["1", "1", "1", "1"]}}, "TArgs": {"list": {"type": ["DT_FLOAT"]}}, "padding": {"s": "U0FNRQ=="}, "use_cudnn_on_gpu": {"b": true}, "leakyrelu_alpha": {"f": 0.2}, "epsilon": {"f": 0.0}, "T": {"type": "DT_FLOAT"}, "explicit_paddings": {"list": {}}, "dilations": {"list": {"i": ["1", "1", "1", "1"]}}}}, {"name": "StatefulPartitionedCall/sequential_2_1/inception_v3_1/activation_114_1/Relu", "op": "_FusedConv2D", "input": ["StatefulPartitionedCall/sequential_2_1/inception_v3_1/activation_106_1/Relu", "StatefulPartitionedCall/sequential_2_1/inception_v3_1/conv2d_114_1/convolution/merged_input", "StatefulPartitionedCall/sequential_2_1/inception_v3_1/batch_normalization_114_1/batchnorm/sub"], "device": "/device:CPU:0", "attr": {"num_host_args": {"i": "0"}, "data_format": {"s": "TkhXQw=="}, "filter_format": {"s": "SFdJTw=="}, "fused_ops": {"list": {"s": ["Qmlhc0FkZA==", "UmVsdQ=="]}}, "num_args": {"i": "1"}, "strides": {"list": {"i": ["1", "1", "1", "1"]}}, "TArgs": {"list": {"type": ["DT_FLOAT"]}}, "padding": {"s": "U0FNRQ=="}, "use_cudnn_on_gpu": {"b": true}, "leakyrelu_alpha": {"f": 0.2}, "epsilon": {"f": 0.0}, "T": {"type": "DT_FLOAT"}, "explicit_paddings": {"list": {}}, "dilations": {"list": {"i": ["1", "1", "1", "1"]}}}}, {"name": "StatefulPartitionedCall/sequential_2_1/inception_v3_1/activation_116_1/Relu", "op": "_FusedConv2D", "input": ["StatefulPartitionedCall/sequential_2_1/inception_v3_1/activation_106_1/Relu", "StatefulPartitionedCall/sequential_2_1/inception_v3_1/conv2d_116_1/convolution/merged_input", "StatefulPartitionedCall/sequential_2_1/inception_v3_1/batch_normalization_116_1/batchnorm/sub"], "device": "/device:CPU:0", "attr": {"num_host_args": {"i": "0"}, "data_format": {"s": "TkhXQw=="}, "filter_format": {"s": "SFdJTw=="}, "fused_ops": {"list": {"s": ["Qmlhc0FkZA==", "UmVsdQ=="]}}, "num_args": {"i": "1"}, "strides": {"list": {"i": ["1", "1", "1", "1"]}}, "TArgs": {"list": {"type": ["DT_FLOAT"]}}, "padding": {"s": "U0FNRQ=="}, "use_cudnn_on_gpu": {"b": true}, "leakyrelu_alpha": {"f": 0.2}, "epsilon": {"f": 0.0}, "T": {"type": "DT_FLOAT"}, "explicit_paddings": {"list": {}}, "dilations": {"list": {"i": ["1", "1", "1", "1"]}}}}, {"name": "StatefulPartitionedCall/sequential_2_1/inception_v3_1/average_pooling2d_11_1/AvgPool", "op": "AvgPool", "input": ["StatefulPartitionedCall/sequential_2_1/inception_v3_1/activation_106_1/Relu"], "attr": {"ksize": {"list": {"i": ["1", "3", "3", "1"]}}, "data_format": {"s": "TkhXQw=="}, "T": {"type": "DT_FLOAT"}, "padding": {"s": "U0FNRQ=="}, "strides": {"list": {"i": ["1", "1", "1", "1"]}}}}, {"name": "StatefulPartitionedCall/sequential_2_1/inception_v3_1/batch_normalization_115_1/batchnorm/add_1", "op": "_FusedConv2D", "input": ["StatefulPartitionedCall/sequential_2_1/inception_v3_1/activation_114_1/Relu", "StatefulPartitionedCall/sequential_2_1/inception_v3_1/conv2d_115_1/convolution/merged_input", "StatefulPartitionedCall/sequential_2_1/inception_v3_1/batch_normalization_115_1/batchnorm/sub"], "device": "/device:CPU:0", "attr": {"num_host_args": {"i": "0"}, "data_format": {"s": "TkhXQw=="}, "filter_format": {"s": "SFdJTw=="}, "strides": {"list": {"i": ["1", "1", "1", "1"]}}, "num_args": {"i": "1"}, "fused_ops": {"list": {"s": ["Qmlhc0FkZA=="]}}, "TArgs": {"list": {"type": ["DT_FLOAT"]}}, "padding": {"s": "U0FNRQ=="}, "use_cudnn_on_gpu": {"b": true}, "leakyrelu_alpha": {"f": 0.2}, "epsilon": {"f": 0.0}, "T": {"type": "DT_FLOAT"}, "explicit_paddings": {"list": {}}, "dilations": {"list": {"i": ["1", "1", "1", "1"]}}}}, {"name": "StatefulPartitionedCall/sequential_2_1/inception_v3_1/activation_117_1/Relu", "op": "_FusedConv2D", "input": ["StatefulPartitionedCall/sequential_2_1/inception_v3_1/activation_116_1/Relu", "StatefulPartitionedCall/sequential_2_1/inception_v3_1/conv2d_117_1/convolution/merged_input", "StatefulPartitionedCall/sequential_2_1/inception_v3_1/batch_normalization_117_1/batchnorm/sub"], "device": "/device:CPU:0", "attr": {"num_host_args": {"i": "0"}, "data_format": {"s": "TkhXQw=="}, "filter_format": {"s": "SFdJTw=="}, "strides": {"list": {"i": ["1", "1", "1", "1"]}}, "num_args": {"i": "1"}, "fused_ops": {"list": {"s": ["Qmlhc0FkZA==", "UmVsdQ=="]}}, "TArgs": {"list": {"type": ["DT_FLOAT"]}}, "padding": {"s": "U0FNRQ=="}, "use_cudnn_on_gpu": {"b": true}, "leakyrelu_alpha": {"f": 0.2}, "epsilon": {"f": 0.0}, "T": {"type": "DT_FLOAT"}, "explicit_paddings": {"list": {}}, "dilations": {"list": {"i": ["1", "1", "1", "1"]}}}}, {"name": "StatefulPartitionedCall/sequential_2_1/inception_v3_1/batch_normalization_119_1/batchnorm/add_1", "op": "_FusedConv2D", "input": ["StatefulPartitionedCall/sequential_2_1/inception_v3_1/average_pooling2d_11_1/AvgPool", "StatefulPartitionedCall/sequential_2_1/inception_v3_1/conv2d_119_1/convolution/merged_input", "StatefulPartitionedCall/sequential_2_1/inception_v3_1/batch_normalization_119_1/batchnorm/sub"], "device": "/device:CPU:0", "attr": {"num_host_args": {"i": "0"}, "data_format": {"s": "TkhXQw=="}, "filter_format": {"s": "SFdJTw=="}, "strides": {"list": {"i": ["1", "1", "1", "1"]}}, "num_args": {"i": "1"}, "fused_ops": {"list": {"s": ["Qmlhc0FkZA=="]}}, "TArgs": {"list": {"type": ["DT_FLOAT"]}}, "padding": {"s": "U0FNRQ=="}, "use_cudnn_on_gpu": {"b": true}, "leakyrelu_alpha": {"f": 0.2}, "epsilon": {"f": 0.0}, "T": {"type": "DT_FLOAT"}, "explicit_paddings": {"list": {}}, "dilations": {"list": {"i": ["1", "1", "1", "1"]}}}}, {"name": "StatefulPartitionedCall/sequential_2_1/inception_v3_1/batch_normalization_118_1/batchnorm/add_1", "op": "_FusedConv2D", "input": ["StatefulPartitionedCall/sequential_2_1/inception_v3_1/activation_117_1/Relu", "StatefulPartitionedCall/sequential_2_1/inception_v3_1/conv2d_118_1/convolution/merged_input", "StatefulPartitionedCall/sequential_2_1/inception_v3_1/batch_normalization_118_1/batchnorm/sub"], "device": "/device:CPU:0", "attr": {"num_host_args": {"i": "0"}, "data_format": {"s": "TkhXQw=="}, "filter_format": {"s": "SFdJTw=="}, "fused_ops": {"list": {"s": ["Qmlhc0FkZA=="]}}, "num_args": {"i": "1"}, "strides": {"list": {"i": ["1", "1", "1", "1"]}}, "TArgs": {"list": {"type": ["DT_FLOAT"]}}, "padding": {"s": "U0FNRQ=="}, "use_cudnn_on_gpu": {"b": true}, "leakyrelu_alpha": {"f": 0.2}, "epsilon": {"f": 0.0}, "T": {"type": "DT_FLOAT"}, "explicit_paddings": {"list": {}}, "dilations": {"list": {"i": ["1", "1", "1", "1"]}}}}, {"name": "StatefulPartitionedCall/sequential_2_1/inception_v3_1/mixed2_1/concat", "op": "ConcatV2", "input": ["StatefulPartitionedCall/sequential_2_1/inception_v3_1/batch_normalization_113_1/batchnorm/add_1", "StatefulPartitionedCall/sequential_2_1/inception_v3_1/batch_normalization_115_1/batchnorm/add_1", "StatefulPartitionedCall/sequential_2_1/inception_v3_1/batch_normalization_118_1/batchnorm/add_1", "StatefulPartitionedCall/sequential_2_1/inception_v3_1/batch_normalization_119_1/batchnorm/add_1", "StatefulPartitionedCall/sequential_2_1/inception_v3_1/mixed2_1/concat/axis"], "attr": {"N": {"i": "4"}, "T": {"type": "DT_FLOAT"}, "Tidx": {"type": "DT_INT32"}}}, {"name": "StatefulPartitionedCall/sequential_2_1/inception_v3_1/activation_113_1/Relu", "op": "Relu", "input": ["StatefulPartitionedCall/sequential_2_1/inception_v3_1/mixed2_1/concat"], "attr": {"T": {"type": "DT_FLOAT"}}}, {"name": "StatefulPartitionedCall/sequential_2_1/inception_v3_1/activation_120_1/Relu", "op": "_FusedConv2D", "input": ["StatefulPartitionedCall/sequential_2_1/inception_v3_1/activation_113_1/Relu", "StatefulPartitionedCall/sequential_2_1/inception_v3_1/conv2d_120_1/convolution/merged_input", "StatefulPartitionedCall/sequential_2_1/inception_v3_1/batch_normalization_120_1/batchnorm/sub"], "device": "/device:CPU:0", "attr": {"num_host_args": {"i": "0"}, "data_format": {"s": "TkhXQw=="}, "filter_format": {"s": "SFdJTw=="}, "strides": {"list": {"i": ["1", "2", "2", "1"]}}, "num_args": {"i": "1"}, "fused_ops": {"list": {"s": ["Qmlhc0FkZA==", "UmVsdQ=="]}}, "TArgs": {"list": {"type": ["DT_FLOAT"]}}, "padding": {"s": "VkFMSUQ="}, "use_cudnn_on_gpu": {"b": true}, "leakyrelu_alpha": {"f": 0.2}, "epsilon": {"f": 0.0}, "T": {"type": "DT_FLOAT"}, "explicit_paddings": {"list": {}}, "dilations": {"list": {"i": ["1", "1", "1", "1"]}}}}, {"name": "StatefulPartitionedCall/sequential_2_1/inception_v3_1/activation_121_1/Relu", "op": "_FusedConv2D", "input": ["StatefulPartitionedCall/sequential_2_1/inception_v3_1/activation_113_1/Relu", "StatefulPartitionedCall/sequential_2_1/inception_v3_1/conv2d_121_1/convolution/merged_input", "StatefulPartitionedCall/sequential_2_1/inception_v3_1/batch_normalization_121_1/batchnorm/sub"], "device": "/device:CPU:0", "attr": {"num_host_args": {"i": "0"}, "data_format": {"s": "TkhXQw=="}, "filter_format": {"s": "SFdJTw=="}, "fused_ops": {"list": {"s": ["Qmlhc0FkZA==", "UmVsdQ=="]}}, "num_args": {"i": "1"}, "strides": {"list": {"i": ["1", "1", "1", "1"]}}, "TArgs": {"list": {"type": ["DT_FLOAT"]}}, "padding": {"s": "U0FNRQ=="}, "use_cudnn_on_gpu": {"b": true}, "leakyrelu_alpha": {"f": 0.2}, "epsilon": {"f": 0.0}, "T": {"type": "DT_FLOAT"}, "explicit_paddings": {"list": {}}, "dilations": {"list": {"i": ["1", "1", "1", "1"]}}}}, {"name": "StatefulPartitionedCall/sequential_2_1/inception_v3_1/max_pooling2d_6_1/MaxPool2d", "op": "MaxPool", "input": ["StatefulPartitionedCall/sequential_2_1/inception_v3_1/activation_113_1/Relu"], "attr": {"padding": {"s": "VkFMSUQ="}, "data_format": {"s": "TkhXQw=="}, "T": {"type": "DT_FLOAT"}, "explicit_paddings": {"list": {}}, "ksize": {"list": {"i": ["1", "3", "3", "1"]}}, "strides": {"list": {"i": ["1", "2", "2", "1"]}}}}, {"name": "StatefulPartitionedCall/sequential_2_1/inception_v3_1/activation_122_1/Relu", "op": "_FusedConv2D", "input": ["StatefulPartitionedCall/sequential_2_1/inception_v3_1/activation_121_1/Relu", "StatefulPartitionedCall/sequential_2_1/inception_v3_1/conv2d_122_1/convolution/merged_input", "StatefulPartitionedCall/sequential_2_1/inception_v3_1/batch_normalization_122_1/batchnorm/sub"], "device": "/device:CPU:0", "attr": {"num_host_args": {"i": "0"}, "data_format": {"s": "TkhXQw=="}, "filter_format": {"s": "SFdJTw=="}, "strides": {"list": {"i": ["1", "1", "1", "1"]}}, "num_args": {"i": "1"}, "fused_ops": {"list": {"s": ["Qmlhc0FkZA==", "UmVsdQ=="]}}, "TArgs": {"list": {"type": ["DT_FLOAT"]}}, "padding": {"s": "U0FNRQ=="}, "use_cudnn_on_gpu": {"b": true}, "leakyrelu_alpha": {"f": 0.2}, "epsilon": {"f": 0.0}, "T": {"type": "DT_FLOAT"}, "explicit_paddings": {"list": {}}, "dilations": {"list": {"i": ["1", "1", "1", "1"]}}}}, {"name": "StatefulPartitionedCall/sequential_2_1/inception_v3_1/activation_123_1/Relu", "op": "_FusedConv2D", "input": ["StatefulPartitionedCall/sequential_2_1/inception_v3_1/activation_122_1/Relu", "StatefulPartitionedCall/sequential_2_1/inception_v3_1/conv2d_123_1/convolution/merged_input", "StatefulPartitionedCall/sequential_2_1/inception_v3_1/batch_normalization_123_1/batchnorm/sub"], "device": "/device:CPU:0", "attr": {"num_host_args": {"i": "0"}, "data_format": {"s": "TkhXQw=="}, "filter_format": {"s": "SFdJTw=="}, "strides": {"list": {"i": ["1", "2", "2", "1"]}}, "num_args": {"i": "1"}, "fused_ops": {"list": {"s": ["Qmlhc0FkZA==", "UmVsdQ=="]}}, "TArgs": {"list": {"type": ["DT_FLOAT"]}}, "padding": {"s": "VkFMSUQ="}, "use_cudnn_on_gpu": {"b": true}, "leakyrelu_alpha": {"f": 0.2}, "epsilon": {"f": 0.0}, "T": {"type": "DT_FLOAT"}, "explicit_paddings": {"list": {}}, "dilations": {"list": {"i": ["1", "1", "1", "1"]}}}}, {"name": "StatefulPartitionedCall/sequential_2_1/inception_v3_1/mixed3_1/concat", "op": "ConcatV2", "input": ["StatefulPartitionedCall/sequential_2_1/inception_v3_1/activation_120_1/Relu", "StatefulPartitionedCall/sequential_2_1/inception_v3_1/activation_123_1/Relu", "StatefulPartitionedCall/sequential_2_1/inception_v3_1/max_pooling2d_6_1/MaxPool2d", "StatefulPartitionedCall/sequential_2_1/inception_v3_1/mixed3_1/concat/axis"], "attr": {"N": {"i": "3"}, "Tidx": {"type": "DT_INT32"}, "T": {"type": "DT_FLOAT"}}}, {"name": "StatefulPartitionedCall/sequential_2_1/inception_v3_1/batch_normalization_124_1/batchnorm/add_1", "op": "_FusedConv2D", "input": ["StatefulPartitionedCall/sequential_2_1/inception_v3_1/mixed3_1/concat", "StatefulPartitionedCall/sequential_2_1/inception_v3_1/conv2d_124_1/convolution/merged_input", "StatefulPartitionedCall/sequential_2_1/inception_v3_1/batch_normalization_124_1/batchnorm/sub"], "device": "/device:CPU:0", "attr": {"num_host_args": {"i": "0"}, "data_format": {"s": "TkhXQw=="}, "filter_format": {"s": "SFdJTw=="}, "strides": {"list": {"i": ["1", "1", "1", "1"]}}, "num_args": {"i": "1"}, "fused_ops": {"list": {"s": ["Qmlhc0FkZA=="]}}, "TArgs": {"list": {"type": ["DT_FLOAT"]}}, "padding": {"s": "U0FNRQ=="}, "use_cudnn_on_gpu": {"b": true}, "leakyrelu_alpha": {"f": 0.2}, "epsilon": {"f": 0.0}, "T": {"type": "DT_FLOAT"}, "explicit_paddings": {"list": {}}, "dilations": {"list": {"i": ["1", "1", "1", "1"]}}}}, {"name": "StatefulPartitionedCall/sequential_2_1/inception_v3_1/activation_125_1/Relu", "op": "_FusedConv2D", "input": ["StatefulPartitionedCall/sequential_2_1/inception_v3_1/mixed3_1/concat", "StatefulPartitionedCall/sequential_2_1/inception_v3_1/conv2d_125_1/convolution/merged_input", "StatefulPartitionedCall/sequential_2_1/inception_v3_1/batch_normalization_125_1/batchnorm/sub"], "device": "/device:CPU:0", "attr": {"num_host_args": {"i": "0"}, "data_format": {"s": "TkhXQw=="}, "filter_format": {"s": "SFdJTw=="}, "strides": {"list": {"i": ["1", "1", "1", "1"]}}, "num_args": {"i": "1"}, "fused_ops": {"list": {"s": ["Qmlhc0FkZA==", "UmVsdQ=="]}}, "TArgs": {"list": {"type": ["DT_FLOAT"]}}, "padding": {"s": "U0FNRQ=="}, "use_cudnn_on_gpu": {"b": true}, "leakyrelu_alpha": {"f": 0.2}, "epsilon": {"f": 0.0}, "T": {"type": "DT_FLOAT"}, "explicit_paddings": {"list": {}}, "dilations": {"list": {"i": ["1", "1", "1", "1"]}}}}, {"name": "StatefulPartitionedCall/sequential_2_1/inception_v3_1/activation_128_1/Relu", "op": "_FusedConv2D", "input": ["StatefulPartitionedCall/sequential_2_1/inception_v3_1/mixed3_1/concat", "StatefulPartitionedCall/sequential_2_1/inception_v3_1/conv2d_128_1/convolution/merged_input", "StatefulPartitionedCall/sequential_2_1/inception_v3_1/batch_normalization_128_1/batchnorm/sub"], "device": "/device:CPU:0", "attr": {"num_host_args": {"i": "0"}, "data_format": {"s": "TkhXQw=="}, "filter_format": {"s": "SFdJTw=="}, "fused_ops": {"list": {"s": ["Qmlhc0FkZA==", "UmVsdQ=="]}}, "num_args": {"i": "1"}, "strides": {"list": {"i": ["1", "1", "1", "1"]}}, "TArgs": {"list": {"type": ["DT_FLOAT"]}}, "padding": {"s": "U0FNRQ=="}, "use_cudnn_on_gpu": {"b": true}, "leakyrelu_alpha": {"f": 0.2}, "epsilon": {"f": 0.0}, "T": {"type": "DT_FLOAT"}, "explicit_paddings": {"list": {}}, "dilations": {"list": {"i": ["1", "1", "1", "1"]}}}}, {"name": "StatefulPartitionedCall/sequential_2_1/inception_v3_1/average_pooling2d_12_1/AvgPool", "op": "AvgPool", "input": ["StatefulPartitionedCall/sequential_2_1/inception_v3_1/mixed3_1/concat"], "attr": {"padding": {"s": "U0FNRQ=="}, "data_format": {"s": "TkhXQw=="}, "T": {"type": "DT_FLOAT"}, "ksize": {"list": {"i": ["1", "3", "3", "1"]}}, "strides": {"list": {"i": ["1", "1", "1", "1"]}}}}, {"name": "StatefulPartitionedCall/sequential_2_1/inception_v3_1/activation_126_1/Relu", "op": "_FusedConv2D", "input": ["StatefulPartitionedCall/sequential_2_1/inception_v3_1/activation_125_1/Relu", "StatefulPartitionedCall/sequential_2_1/inception_v3_1/conv2d_126_1/convolution/merged_input", "StatefulPartitionedCall/sequential_2_1/inception_v3_1/batch_normalization_126_1/batchnorm/sub"], "device": "/device:CPU:0", "attr": {"num_host_args": {"i": "0"}, "data_format": {"s": "TkhXQw=="}, "filter_format": {"s": "SFdJTw=="}, "strides": {"list": {"i": ["1", "1", "1", "1"]}}, "num_args": {"i": "1"}, "fused_ops": {"list": {"s": ["Qmlhc0FkZA==", "UmVsdQ=="]}}, "TArgs": {"list": {"type": ["DT_FLOAT"]}}, "padding": {"s": "U0FNRQ=="}, "use_cudnn_on_gpu": {"b": true}, "leakyrelu_alpha": {"f": 0.2}, "epsilon": {"f": 0.0}, "T": {"type": "DT_FLOAT"}, "explicit_paddings": {"list": {}}, "dilations": {"list": {"i": ["1", "1", "1", "1"]}}}}, {"name": "StatefulPartitionedCall/sequential_2_1/inception_v3_1/activation_129_1/Relu", "op": "_FusedConv2D", "input": ["StatefulPartitionedCall/sequential_2_1/inception_v3_1/activation_128_1/Relu", "StatefulPartitionedCall/sequential_2_1/inception_v3_1/conv2d_129_1/convolution/merged_input", "StatefulPartitionedCall/sequential_2_1/inception_v3_1/batch_normalization_129_1/batchnorm/sub"], "device": "/device:CPU:0", "attr": {"num_host_args": {"i": "0"}, "data_format": {"s": "TkhXQw=="}, "filter_format": {"s": "SFdJTw=="}, "fused_ops": {"list": {"s": ["Qmlhc0FkZA==", "UmVsdQ=="]}}, "num_args": {"i": "1"}, "strides": {"list": {"i": ["1", "1", "1", "1"]}}, "TArgs": {"list": {"type": ["DT_FLOAT"]}}, "padding": {"s": "U0FNRQ=="}, "use_cudnn_on_gpu": {"b": true}, "leakyrelu_alpha": {"f": 0.2}, "epsilon": {"f": 0.0}, "T": {"type": "DT_FLOAT"}, "explicit_paddings": {"list": {}}, "dilations": {"list": {"i": ["1", "1", "1", "1"]}}}}, {"name": "StatefulPartitionedCall/sequential_2_1/inception_v3_1/batch_normalization_133_1/batchnorm/add_1", "op": "_FusedConv2D", "input": ["StatefulPartitionedCall/sequential_2_1/inception_v3_1/average_pooling2d_12_1/AvgPool", "StatefulPartitionedCall/sequential_2_1/inception_v3_1/conv2d_133_1/convolution/merged_input", "StatefulPartitionedCall/sequential_2_1/inception_v3_1/batch_normalization_133_1/batchnorm/sub"], "device": "/device:CPU:0", "attr": {"num_host_args": {"i": "0"}, "data_format": {"s": "TkhXQw=="}, "filter_format": {"s": "SFdJTw=="}, "strides": {"list": {"i": ["1", "1", "1", "1"]}}, "num_args": {"i": "1"}, "fused_ops": {"list": {"s": ["Qmlhc0FkZA=="]}}, "TArgs": {"list": {"type": ["DT_FLOAT"]}}, "padding": {"s": "U0FNRQ=="}, "use_cudnn_on_gpu": {"b": true}, "leakyrelu_alpha": {"f": 0.2}, "epsilon": {"f": 0.0}, "T": {"type": "DT_FLOAT"}, "explicit_paddings": {"list": {}}, "dilations": {"list": {"i": ["1", "1", "1", "1"]}}}}, {"name": "StatefulPartitionedCall/sequential_2_1/inception_v3_1/batch_normalization_127_1/batchnorm/add_1", "op": "_FusedConv2D", "input": ["StatefulPartitionedCall/sequential_2_1/inception_v3_1/activation_126_1/Relu", "StatefulPartitionedCall/sequential_2_1/inception_v3_1/conv2d_127_1/convolution/merged_input", "StatefulPartitionedCall/sequential_2_1/inception_v3_1/batch_normalization_127_1/batchnorm/sub"], "device": "/device:CPU:0", "attr": {"num_host_args": {"i": "0"}, "data_format": {"s": "TkhXQw=="}, "filter_format": {"s": "SFdJTw=="}, "strides": {"list": {"i": ["1", "1", "1", "1"]}}, "num_args": {"i": "1"}, "fused_ops": {"list": {"s": ["Qmlhc0FkZA=="]}}, "TArgs": {"list": {"type": ["DT_FLOAT"]}}, "padding": {"s": "U0FNRQ=="}, "use_cudnn_on_gpu": {"b": true}, "leakyrelu_alpha": {"f": 0.2}, "epsilon": {"f": 0.0}, "T": {"type": "DT_FLOAT"}, "explicit_paddings": {"list": {}}, "dilations": {"list": {"i": ["1", "1", "1", "1"]}}}}, {"name": "StatefulPartitionedCall/sequential_2_1/inception_v3_1/activation_130_1/Relu", "op": "_FusedConv2D", "input": ["StatefulPartitionedCall/sequential_2_1/inception_v3_1/activation_129_1/Relu", "StatefulPartitionedCall/sequential_2_1/inception_v3_1/conv2d_130_1/convolution/merged_input", "StatefulPartitionedCall/sequential_2_1/inception_v3_1/batch_normalization_130_1/batchnorm/sub"], "device": "/device:CPU:0", "attr": {"num_host_args": {"i": "0"}, "data_format": {"s": "TkhXQw=="}, "filter_format": {"s": "SFdJTw=="}, "strides": {"list": {"i": ["1", "1", "1", "1"]}}, "num_args": {"i": "1"}, "fused_ops": {"list": {"s": ["Qmlhc0FkZA==", "UmVsdQ=="]}}, "TArgs": {"list": {"type": ["DT_FLOAT"]}}, "padding": {"s": "U0FNRQ=="}, "use_cudnn_on_gpu": {"b": true}, "leakyrelu_alpha": {"f": 0.2}, "epsilon": {"f": 0.0}, "T": {"type": "DT_FLOAT"}, "explicit_paddings": {"list": {}}, "dilations": {"list": {"i": ["1", "1", "1", "1"]}}}}, {"name": "StatefulPartitionedCall/sequential_2_1/inception_v3_1/activation_131_1/Relu", "op": "_FusedConv2D", "input": ["StatefulPartitionedCall/sequential_2_1/inception_v3_1/activation_130_1/Relu", "StatefulPartitionedCall/sequential_2_1/inception_v3_1/conv2d_131_1/convolution/merged_input", "StatefulPartitionedCall/sequential_2_1/inception_v3_1/batch_normalization_131_1/batchnorm/sub"], "device": "/device:CPU:0", "attr": {"num_host_args": {"i": "0"}, "data_format": {"s": "TkhXQw=="}, "filter_format": {"s": "SFdJTw=="}, "strides": {"list": {"i": ["1", "1", "1", "1"]}}, "num_args": {"i": "1"}, "fused_ops": {"list": {"s": ["Qmlhc0FkZA==", "UmVsdQ=="]}}, "TArgs": {"list": {"type": ["DT_FLOAT"]}}, "padding": {"s": "U0FNRQ=="}, "use_cudnn_on_gpu": {"b": true}, "leakyrelu_alpha": {"f": 0.2}, "epsilon": {"f": 0.0}, "T": {"type": "DT_FLOAT"}, "explicit_paddings": {"list": {}}, "dilations": {"list": {"i": ["1", "1", "1", "1"]}}}}, {"name": "StatefulPartitionedCall/sequential_2_1/inception_v3_1/batch_normalization_132_1/batchnorm/add_1", "op": "_FusedConv2D", "input": ["StatefulPartitionedCall/sequential_2_1/inception_v3_1/activation_131_1/Relu", "StatefulPartitionedCall/sequential_2_1/inception_v3_1/conv2d_132_1/convolution/merged_input", "StatefulPartitionedCall/sequential_2_1/inception_v3_1/batch_normalization_132_1/batchnorm/sub"], "device": "/device:CPU:0", "attr": {"num_host_args": {"i": "0"}, "data_format": {"s": "TkhXQw=="}, "filter_format": {"s": "SFdJTw=="}, "strides": {"list": {"i": ["1", "1", "1", "1"]}}, "num_args": {"i": "1"}, "fused_ops": {"list": {"s": ["Qmlhc0FkZA=="]}}, "TArgs": {"list": {"type": ["DT_FLOAT"]}}, "padding": {"s": "U0FNRQ=="}, "use_cudnn_on_gpu": {"b": true}, "leakyrelu_alpha": {"f": 0.2}, "epsilon": {"f": 0.0}, "T": {"type": "DT_FLOAT"}, "explicit_paddings": {"list": {}}, "dilations": {"list": {"i": ["1", "1", "1", "1"]}}}}, {"name": "StatefulPartitionedCall/sequential_2_1/inception_v3_1/mixed4_1/concat", "op": "ConcatV2", "input": ["StatefulPartitionedCall/sequential_2_1/inception_v3_1/batch_normalization_124_1/batchnorm/add_1", "StatefulPartitionedCall/sequential_2_1/inception_v3_1/batch_normalization_127_1/batchnorm/add_1", "StatefulPartitionedCall/sequential_2_1/inception_v3_1/batch_normalization_132_1/batchnorm/add_1", "StatefulPartitionedCall/sequential_2_1/inception_v3_1/batch_normalization_133_1/batchnorm/add_1", "StatefulPartitionedCall/sequential_2_1/inception_v3_1/mixed4_1/concat/axis"], "attr": {"N": {"i": "4"}, "T": {"type": "DT_FLOAT"}, "Tidx": {"type": "DT_INT32"}}}, {"name": "StatefulPartitionedCall/sequential_2_1/inception_v3_1/activation_124_1/Relu", "op": "Relu", "input": ["StatefulPartitionedCall/sequential_2_1/inception_v3_1/mixed4_1/concat"], "attr": {"T": {"type": "DT_FLOAT"}}}, {"name": "StatefulPartitionedCall/sequential_2_1/inception_v3_1/average_pooling2d_13_1/AvgPool", "op": "AvgPool", "input": ["StatefulPartitionedCall/sequential_2_1/inception_v3_1/activation_124_1/Relu"], "attr": {"ksize": {"list": {"i": ["1", "3", "3", "1"]}}, "data_format": {"s": "TkhXQw=="}, "T": {"type": "DT_FLOAT"}, "padding": {"s": "U0FNRQ=="}, "strides": {"list": {"i": ["1", "1", "1", "1"]}}}}, {"name": "StatefulPartitionedCall/sequential_2_1/inception_v3_1/batch_normalization_134_1/batchnorm/add_1", "op": "_FusedConv2D", "input": ["StatefulPartitionedCall/sequential_2_1/inception_v3_1/activation_124_1/Relu", "StatefulPartitionedCall/sequential_2_1/inception_v3_1/conv2d_134_1/convolution/merged_input", "StatefulPartitionedCall/sequential_2_1/inception_v3_1/batch_normalization_134_1/batchnorm/sub"], "device": "/device:CPU:0", "attr": {"num_host_args": {"i": "0"}, "data_format": {"s": "TkhXQw=="}, "filter_format": {"s": "SFdJTw=="}, "fused_ops": {"list": {"s": ["Qmlhc0FkZA=="]}}, "num_args": {"i": "1"}, "strides": {"list": {"i": ["1", "1", "1", "1"]}}, "TArgs": {"list": {"type": ["DT_FLOAT"]}}, "padding": {"s": "U0FNRQ=="}, "use_cudnn_on_gpu": {"b": true}, "leakyrelu_alpha": {"f": 0.2}, "epsilon": {"f": 0.0}, "T": {"type": "DT_FLOAT"}, "explicit_paddings": {"list": {}}, "dilations": {"list": {"i": ["1", "1", "1", "1"]}}}}, {"name": "StatefulPartitionedCall/sequential_2_1/inception_v3_1/activation_135_1/Relu", "op": "_FusedConv2D", "input": ["StatefulPartitionedCall/sequential_2_1/inception_v3_1/activation_124_1/Relu", "StatefulPartitionedCall/sequential_2_1/inception_v3_1/conv2d_135_1/convolution/merged_input", "StatefulPartitionedCall/sequential_2_1/inception_v3_1/batch_normalization_135_1/batchnorm/sub"], "device": "/device:CPU:0", "attr": {"num_host_args": {"i": "0"}, "data_format": {"s": "TkhXQw=="}, "filter_format": {"s": "SFdJTw=="}, "fused_ops": {"list": {"s": ["Qmlhc0FkZA==", "UmVsdQ=="]}}, "num_args": {"i": "1"}, "strides": {"list": {"i": ["1", "1", "1", "1"]}}, "TArgs": {"list": {"type": ["DT_FLOAT"]}}, "padding": {"s": "U0FNRQ=="}, "use_cudnn_on_gpu": {"b": true}, "leakyrelu_alpha": {"f": 0.2}, "epsilon": {"f": 0.0}, "T": {"type": "DT_FLOAT"}, "explicit_paddings": {"list": {}}, "dilations": {"list": {"i": ["1", "1", "1", "1"]}}}}, {"name": "StatefulPartitionedCall/sequential_2_1/inception_v3_1/activation_138_1/Relu", "op": "_FusedConv2D", "input": ["StatefulPartitionedCall/sequential_2_1/inception_v3_1/activation_124_1/Relu", "StatefulPartitionedCall/sequential_2_1/inception_v3_1/conv2d_138_1/convolution/merged_input", "StatefulPartitionedCall/sequential_2_1/inception_v3_1/batch_normalization_138_1/batchnorm/sub"], "device": "/device:CPU:0", "attr": {"num_host_args": {"i": "0"}, "data_format": {"s": "TkhXQw=="}, "filter_format": {"s": "SFdJTw=="}, "strides": {"list": {"i": ["1", "1", "1", "1"]}}, "num_args": {"i": "1"}, "fused_ops": {"list": {"s": ["Qmlhc0FkZA==", "UmVsdQ=="]}}, "TArgs": {"list": {"type": ["DT_FLOAT"]}}, "padding": {"s": "U0FNRQ=="}, "use_cudnn_on_gpu": {"b": true}, "leakyrelu_alpha": {"f": 0.2}, "epsilon": {"f": 0.0}, "T": {"type": "DT_FLOAT"}, "explicit_paddings": {"list": {}}, "dilations": {"list": {"i": ["1", "1", "1", "1"]}}}}, {"name": "StatefulPartitionedCall/sequential_2_1/inception_v3_1/batch_normalization_143_1/batchnorm/add_1", "op": "_FusedConv2D", "input": ["StatefulPartitionedCall/sequential_2_1/inception_v3_1/average_pooling2d_13_1/AvgPool", "StatefulPartitionedCall/sequential_2_1/inception_v3_1/conv2d_143_1/convolution/merged_input", "StatefulPartitionedCall/sequential_2_1/inception_v3_1/batch_normalization_143_1/batchnorm/sub"], "device": "/device:CPU:0", "attr": {"num_host_args": {"i": "0"}, "data_format": {"s": "TkhXQw=="}, "filter_format": {"s": "SFdJTw=="}, "strides": {"list": {"i": ["1", "1", "1", "1"]}}, "num_args": {"i": "1"}, "fused_ops": {"list": {"s": ["Qmlhc0FkZA=="]}}, "TArgs": {"list": {"type": ["DT_FLOAT"]}}, "padding": {"s": "U0FNRQ=="}, "use_cudnn_on_gpu": {"b": true}, "leakyrelu_alpha": {"f": 0.2}, "epsilon": {"f": 0.0}, "T": {"type": "DT_FLOAT"}, "explicit_paddings": {"list": {}}, "dilations": {"list": {"i": ["1", "1", "1", "1"]}}}}, {"name": "StatefulPartitionedCall/sequential_2_1/inception_v3_1/activation_136_1/Relu", "op": "_FusedConv2D", "input": ["StatefulPartitionedCall/sequential_2_1/inception_v3_1/activation_135_1/Relu", "StatefulPartitionedCall/sequential_2_1/inception_v3_1/conv2d_136_1/convolution/merged_input", "StatefulPartitionedCall/sequential_2_1/inception_v3_1/batch_normalization_136_1/batchnorm/sub"], "device": "/device:CPU:0", "attr": {"num_host_args": {"i": "0"}, "data_format": {"s": "TkhXQw=="}, "filter_format": {"s": "SFdJTw=="}, "fused_ops": {"list": {"s": ["Qmlhc0FkZA==", "UmVsdQ=="]}}, "num_args": {"i": "1"}, "strides": {"list": {"i": ["1", "1", "1", "1"]}}, "TArgs": {"list": {"type": ["DT_FLOAT"]}}, "padding": {"s": "U0FNRQ=="}, "use_cudnn_on_gpu": {"b": true}, "leakyrelu_alpha": {"f": 0.2}, "epsilon": {"f": 0.0}, "T": {"type": "DT_FLOAT"}, "explicit_paddings": {"list": {}}, "dilations": {"list": {"i": ["1", "1", "1", "1"]}}}}, {"name": "StatefulPartitionedCall/sequential_2_1/inception_v3_1/activation_139_1/Relu", "op": "_FusedConv2D", "input": ["StatefulPartitionedCall/sequential_2_1/inception_v3_1/activation_138_1/Relu", "StatefulPartitionedCall/sequential_2_1/inception_v3_1/conv2d_139_1/convolution/merged_input", "StatefulPartitionedCall/sequential_2_1/inception_v3_1/batch_normalization_139_1/batchnorm/sub"], "device": "/device:CPU:0", "attr": {"num_host_args": {"i": "0"}, "data_format": {"s": "TkhXQw=="}, "filter_format": {"s": "SFdJTw=="}, "fused_ops": {"list": {"s": ["Qmlhc0FkZA==", "UmVsdQ=="]}}, "num_args": {"i": "1"}, "strides": {"list": {"i": ["1", "1", "1", "1"]}}, "TArgs": {"list": {"type": ["DT_FLOAT"]}}, "padding": {"s": "U0FNRQ=="}, "use_cudnn_on_gpu": {"b": true}, "leakyrelu_alpha": {"f": 0.2}, "epsilon": {"f": 0.0}, "T": {"type": "DT_FLOAT"}, "explicit_paddings": {"list": {}}, "dilations": {"list": {"i": ["1", "1", "1", "1"]}}}}, {"name": "StatefulPartitionedCall/sequential_2_1/inception_v3_1/batch_normalization_137_1/batchnorm/add_1", "op": "_FusedConv2D", "input": ["StatefulPartitionedCall/sequential_2_1/inception_v3_1/activation_136_1/Relu", "StatefulPartitionedCall/sequential_2_1/inception_v3_1/conv2d_137_1/convolution/merged_input", "StatefulPartitionedCall/sequential_2_1/inception_v3_1/batch_normalization_137_1/batchnorm/sub"], "device": "/device:CPU:0", "attr": {"num_host_args": {"i": "0"}, "data_format": {"s": "TkhXQw=="}, "filter_format": {"s": "SFdJTw=="}, "strides": {"list": {"i": ["1", "1", "1", "1"]}}, "num_args": {"i": "1"}, "fused_ops": {"list": {"s": ["Qmlhc0FkZA=="]}}, "TArgs": {"list": {"type": ["DT_FLOAT"]}}, "padding": {"s": "U0FNRQ=="}, "use_cudnn_on_gpu": {"b": true}, "leakyrelu_alpha": {"f": 0.2}, "epsilon": {"f": 0.0}, "T": {"type": "DT_FLOAT"}, "explicit_paddings": {"list": {}}, "dilations": {"list": {"i": ["1", "1", "1", "1"]}}}}, {"name": "StatefulPartitionedCall/sequential_2_1/inception_v3_1/activation_140_1/Relu", "op": "_FusedConv2D", "input": ["StatefulPartitionedCall/sequential_2_1/inception_v3_1/activation_139_1/Relu", "StatefulPartitionedCall/sequential_2_1/inception_v3_1/conv2d_140_1/convolution/merged_input", "StatefulPartitionedCall/sequential_2_1/inception_v3_1/batch_normalization_140_1/batchnorm/sub"], "device": "/device:CPU:0", "attr": {"num_host_args": {"i": "0"}, "data_format": {"s": "TkhXQw=="}, "filter_format": {"s": "SFdJTw=="}, "strides": {"list": {"i": ["1", "1", "1", "1"]}}, "num_args": {"i": "1"}, "fused_ops": {"list": {"s": ["Qmlhc0FkZA==", "UmVsdQ=="]}}, "TArgs": {"list": {"type": ["DT_FLOAT"]}}, "padding": {"s": "U0FNRQ=="}, "use_cudnn_on_gpu": {"b": true}, "leakyrelu_alpha": {"f": 0.2}, "epsilon": {"f": 0.0}, "T": {"type": "DT_FLOAT"}, "explicit_paddings": {"list": {}}, "dilations": {"list": {"i": ["1", "1", "1", "1"]}}}}, {"name": "StatefulPartitionedCall/sequential_2_1/inception_v3_1/activation_141_1/Relu", "op": "_FusedConv2D", "input": ["StatefulPartitionedCall/sequential_2_1/inception_v3_1/activation_140_1/Relu", "StatefulPartitionedCall/sequential_2_1/inception_v3_1/conv2d_141_1/convolution/merged_input", "StatefulPartitionedCall/sequential_2_1/inception_v3_1/batch_normalization_141_1/batchnorm/sub"], "device": "/device:CPU:0", "attr": {"num_host_args": {"i": "0"}, "data_format": {"s": "TkhXQw=="}, "filter_format": {"s": "SFdJTw=="}, "fused_ops": {"list": {"s": ["Qmlhc0FkZA==", "UmVsdQ=="]}}, "num_args": {"i": "1"}, "strides": {"list": {"i": ["1", "1", "1", "1"]}}, "TArgs": {"list": {"type": ["DT_FLOAT"]}}, "padding": {"s": "U0FNRQ=="}, "use_cudnn_on_gpu": {"b": true}, "leakyrelu_alpha": {"f": 0.2}, "epsilon": {"f": 0.0}, "T": {"type": "DT_FLOAT"}, "explicit_paddings": {"list": {}}, "dilations": {"list": {"i": ["1", "1", "1", "1"]}}}}, {"name": "StatefulPartitionedCall/sequential_2_1/inception_v3_1/batch_normalization_142_1/batchnorm/add_1", "op": "_FusedConv2D", "input": ["StatefulPartitionedCall/sequential_2_1/inception_v3_1/activation_141_1/Relu", "StatefulPartitionedCall/sequential_2_1/inception_v3_1/conv2d_142_1/convolution/merged_input", "StatefulPartitionedCall/sequential_2_1/inception_v3_1/batch_normalization_142_1/batchnorm/sub"], "device": "/device:CPU:0", "attr": {"num_host_args": {"i": "0"}, "data_format": {"s": "TkhXQw=="}, "filter_format": {"s": "SFdJTw=="}, "strides": {"list": {"i": ["1", "1", "1", "1"]}}, "num_args": {"i": "1"}, "fused_ops": {"list": {"s": ["Qmlhc0FkZA=="]}}, "TArgs": {"list": {"type": ["DT_FLOAT"]}}, "padding": {"s": "U0FNRQ=="}, "use_cudnn_on_gpu": {"b": true}, "leakyrelu_alpha": {"f": 0.2}, "epsilon": {"f": 0.0}, "T": {"type": "DT_FLOAT"}, "explicit_paddings": {"list": {}}, "dilations": {"list": {"i": ["1", "1", "1", "1"]}}}}, {"name": "StatefulPartitionedCall/sequential_2_1/inception_v3_1/mixed5_1/concat", "op": "ConcatV2", "input": ["StatefulPartitionedCall/sequential_2_1/inception_v3_1/batch_normalization_134_1/batchnorm/add_1", "StatefulPartitionedCall/sequential_2_1/inception_v3_1/batch_normalization_137_1/batchnorm/add_1", "StatefulPartitionedCall/sequential_2_1/inception_v3_1/batch_normalization_142_1/batchnorm/add_1", "StatefulPartitionedCall/sequential_2_1/inception_v3_1/batch_normalization_143_1/batchnorm/add_1", "StatefulPartitionedCall/sequential_2_1/inception_v3_1/mixed5_1/concat/axis"], "attr": {"N": {"i": "4"}, "Tidx": {"type": "DT_INT32"}, "T": {"type": "DT_FLOAT"}}}, {"name": "StatefulPartitionedCall/sequential_2_1/inception_v3_1/activation_134_1/Relu", "op": "Relu", "input": ["StatefulPartitionedCall/sequential_2_1/inception_v3_1/mixed5_1/concat"], "attr": {"T": {"type": "DT_FLOAT"}}}, {"name": "StatefulPartitionedCall/sequential_2_1/inception_v3_1/batch_normalization_144_1/batchnorm/add_1", "op": "_FusedConv2D", "input": ["StatefulPartitionedCall/sequential_2_1/inception_v3_1/activation_134_1/Relu", "StatefulPartitionedCall/sequential_2_1/inception_v3_1/conv2d_144_1/convolution/merged_input", "StatefulPartitionedCall/sequential_2_1/inception_v3_1/batch_normalization_144_1/batchnorm/sub"], "device": "/device:CPU:0", "attr": {"num_host_args": {"i": "0"}, "data_format": {"s": "TkhXQw=="}, "filter_format": {"s": "SFdJTw=="}, "strides": {"list": {"i": ["1", "1", "1", "1"]}}, "num_args": {"i": "1"}, "fused_ops": {"list": {"s": ["Qmlhc0FkZA=="]}}, "TArgs": {"list": {"type": ["DT_FLOAT"]}}, "padding": {"s": "U0FNRQ=="}, "use_cudnn_on_gpu": {"b": true}, "leakyrelu_alpha": {"f": 0.2}, "epsilon": {"f": 0.0}, "T": {"type": "DT_FLOAT"}, "explicit_paddings": {"list": {}}, "dilations": {"list": {"i": ["1", "1", "1", "1"]}}}}, {"name": "StatefulPartitionedCall/sequential_2_1/inception_v3_1/activation_145_1/Relu", "op": "_FusedConv2D", "input": ["StatefulPartitionedCall/sequential_2_1/inception_v3_1/activation_134_1/Relu", "StatefulPartitionedCall/sequential_2_1/inception_v3_1/conv2d_145_1/convolution/merged_input", "StatefulPartitionedCall/sequential_2_1/inception_v3_1/batch_normalization_145_1/batchnorm/sub"], "device": "/device:CPU:0", "attr": {"num_host_args": {"i": "0"}, "data_format": {"s": "TkhXQw=="}, "filter_format": {"s": "SFdJTw=="}, "strides": {"list": {"i": ["1", "1", "1", "1"]}}, "num_args": {"i": "1"}, "fused_ops": {"list": {"s": ["Qmlhc0FkZA==", "UmVsdQ=="]}}, "TArgs": {"list": {"type": ["DT_FLOAT"]}}, "padding": {"s": "U0FNRQ=="}, "use_cudnn_on_gpu": {"b": true}, "leakyrelu_alpha": {"f": 0.2}, "epsilon": {"f": 0.0}, "T": {"type": "DT_FLOAT"}, "explicit_paddings": {"list": {}}, "dilations": {"list": {"i": ["1", "1", "1", "1"]}}}}, {"name": "StatefulPartitionedCall/sequential_2_1/inception_v3_1/activation_148_1/Relu", "op": "_FusedConv2D", "input": ["StatefulPartitionedCall/sequential_2_1/inception_v3_1/activation_134_1/Relu", "StatefulPartitionedCall/sequential_2_1/inception_v3_1/conv2d_148_1/convolution/merged_input", "StatefulPartitionedCall/sequential_2_1/inception_v3_1/batch_normalization_148_1/batchnorm/sub"], "device": "/device:CPU:0", "attr": {"num_host_args": {"i": "0"}, "data_format": {"s": "TkhXQw=="}, "filter_format": {"s": "SFdJTw=="}, "fused_ops": {"list": {"s": ["Qmlhc0FkZA==", "UmVsdQ=="]}}, "num_args": {"i": "1"}, "strides": {"list": {"i": ["1", "1", "1", "1"]}}, "TArgs": {"list": {"type": ["DT_FLOAT"]}}, "padding": {"s": "U0FNRQ=="}, "use_cudnn_on_gpu": {"b": true}, "leakyrelu_alpha": {"f": 0.2}, "epsilon": {"f": 0.0}, "T": {"type": "DT_FLOAT"}, "explicit_paddings": {"list": {}}, "dilations": {"list": {"i": ["1", "1", "1", "1"]}}}}, {"name": "StatefulPartitionedCall/sequential_2_1/inception_v3_1/average_pooling2d_14_1/AvgPool", "op": "AvgPool", "input": ["StatefulPartitionedCall/sequential_2_1/inception_v3_1/activation_134_1/Relu"], "attr": {"padding": {"s": "U0FNRQ=="}, "data_format": {"s": "TkhXQw=="}, "T": {"type": "DT_FLOAT"}, "ksize": {"list": {"i": ["1", "3", "3", "1"]}}, "strides": {"list": {"i": ["1", "1", "1", "1"]}}}}, {"name": "StatefulPartitionedCall/sequential_2_1/inception_v3_1/activation_146_1/Relu", "op": "_FusedConv2D", "input": ["StatefulPartitionedCall/sequential_2_1/inception_v3_1/activation_145_1/Relu", "StatefulPartitionedCall/sequential_2_1/inception_v3_1/conv2d_146_1/convolution/merged_input", "StatefulPartitionedCall/sequential_2_1/inception_v3_1/batch_normalization_146_1/batchnorm/sub"], "device": "/device:CPU:0", "attr": {"num_host_args": {"i": "0"}, "data_format": {"s": "TkhXQw=="}, "filter_format": {"s": "SFdJTw=="}, "fused_ops": {"list": {"s": ["Qmlhc0FkZA==", "UmVsdQ=="]}}, "num_args": {"i": "1"}, "strides": {"list": {"i": ["1", "1", "1", "1"]}}, "TArgs": {"list": {"type": ["DT_FLOAT"]}}, "padding": {"s": "U0FNRQ=="}, "use_cudnn_on_gpu": {"b": true}, "leakyrelu_alpha": {"f": 0.2}, "epsilon": {"f": 0.0}, "T": {"type": "DT_FLOAT"}, "explicit_paddings": {"list": {}}, "dilations": {"list": {"i": ["1", "1", "1", "1"]}}}}, {"name": "StatefulPartitionedCall/sequential_2_1/inception_v3_1/activation_149_1/Relu", "op": "_FusedConv2D", "input": ["StatefulPartitionedCall/sequential_2_1/inception_v3_1/activation_148_1/Relu", "StatefulPartitionedCall/sequential_2_1/inception_v3_1/conv2d_149_1/convolution/merged_input", "StatefulPartitionedCall/sequential_2_1/inception_v3_1/batch_normalization_149_1/batchnorm/sub"], "device": "/device:CPU:0", "attr": {"num_host_args": {"i": "0"}, "data_format": {"s": "TkhXQw=="}, "filter_format": {"s": "SFdJTw=="}, "strides": {"list": {"i": ["1", "1", "1", "1"]}}, "num_args": {"i": "1"}, "fused_ops": {"list": {"s": ["Qmlhc0FkZA==", "UmVsdQ=="]}}, "TArgs": {"list": {"type": ["DT_FLOAT"]}}, "padding": {"s": "U0FNRQ=="}, "use_cudnn_on_gpu": {"b": true}, "leakyrelu_alpha": {"f": 0.2}, "epsilon": {"f": 0.0}, "T": {"type": "DT_FLOAT"}, "explicit_paddings": {"list": {}}, "dilations": {"list": {"i": ["1", "1", "1", "1"]}}}}, {"name": "StatefulPartitionedCall/sequential_2_1/inception_v3_1/batch_normalization_153_1/batchnorm/add_1", "op": "_FusedConv2D", "input": ["StatefulPartitionedCall/sequential_2_1/inception_v3_1/average_pooling2d_14_1/AvgPool", "StatefulPartitionedCall/sequential_2_1/inception_v3_1/conv2d_153_1/convolution/merged_input", "StatefulPartitionedCall/sequential_2_1/inception_v3_1/batch_normalization_153_1/batchnorm/sub"], "device": "/device:CPU:0", "attr": {"num_host_args": {"i": "0"}, "data_format": {"s": "TkhXQw=="}, "filter_format": {"s": "SFdJTw=="}, "strides": {"list": {"i": ["1", "1", "1", "1"]}}, "num_args": {"i": "1"}, "fused_ops": {"list": {"s": ["Qmlhc0FkZA=="]}}, "TArgs": {"list": {"type": ["DT_FLOAT"]}}, "padding": {"s": "U0FNRQ=="}, "use_cudnn_on_gpu": {"b": true}, "leakyrelu_alpha": {"f": 0.2}, "epsilon": {"f": 0.0}, "T": {"type": "DT_FLOAT"}, "explicit_paddings": {"list": {}}, "dilations": {"list": {"i": ["1", "1", "1", "1"]}}}}, {"name": "StatefulPartitionedCall/sequential_2_1/inception_v3_1/batch_normalization_147_1/batchnorm/add_1", "op": "_FusedConv2D", "input": ["StatefulPartitionedCall/sequential_2_1/inception_v3_1/activation_146_1/Relu", "StatefulPartitionedCall/sequential_2_1/inception_v3_1/conv2d_147_1/convolution/merged_input", "StatefulPartitionedCall/sequential_2_1/inception_v3_1/batch_normalization_147_1/batchnorm/sub"], "device": "/device:CPU:0", "attr": {"num_host_args": {"i": "0"}, "data_format": {"s": "TkhXQw=="}, "filter_format": {"s": "SFdJTw=="}, "fused_ops": {"list": {"s": ["Qmlhc0FkZA=="]}}, "num_args": {"i": "1"}, "strides": {"list": {"i": ["1", "1", "1", "1"]}}, "TArgs": {"list": {"type": ["DT_FLOAT"]}}, "padding": {"s": "U0FNRQ=="}, "use_cudnn_on_gpu": {"b": true}, "leakyrelu_alpha": {"f": 0.2}, "epsilon": {"f": 0.0}, "T": {"type": "DT_FLOAT"}, "explicit_paddings": {"list": {}}, "dilations": {"list": {"i": ["1", "1", "1", "1"]}}}}, {"name": "StatefulPartitionedCall/sequential_2_1/inception_v3_1/activation_150_1/Relu", "op": "_FusedConv2D", "input": ["StatefulPartitionedCall/sequential_2_1/inception_v3_1/activation_149_1/Relu", "StatefulPartitionedCall/sequential_2_1/inception_v3_1/conv2d_150_1/convolution/merged_input", "StatefulPartitionedCall/sequential_2_1/inception_v3_1/batch_normalization_150_1/batchnorm/sub"], "device": "/device:CPU:0", "attr": {"num_host_args": {"i": "0"}, "data_format": {"s": "TkhXQw=="}, "filter_format": {"s": "SFdJTw=="}, "fused_ops": {"list": {"s": ["Qmlhc0FkZA==", "UmVsdQ=="]}}, "num_args": {"i": "1"}, "strides": {"list": {"i": ["1", "1", "1", "1"]}}, "TArgs": {"list": {"type": ["DT_FLOAT"]}}, "padding": {"s": "U0FNRQ=="}, "use_cudnn_on_gpu": {"b": true}, "leakyrelu_alpha": {"f": 0.2}, "epsilon": {"f": 0.0}, "T": {"type": "DT_FLOAT"}, "explicit_paddings": {"list": {}}, "dilations": {"list": {"i": ["1", "1", "1", "1"]}}}}, {"name": "StatefulPartitionedCall/sequential_2_1/inception_v3_1/activation_151_1/Relu", "op": "_FusedConv2D", "input": ["StatefulPartitionedCall/sequential_2_1/inception_v3_1/activation_150_1/Relu", "StatefulPartitionedCall/sequential_2_1/inception_v3_1/conv2d_151_1/convolution/merged_input", "StatefulPartitionedCall/sequential_2_1/inception_v3_1/batch_normalization_151_1/batchnorm/sub"], "device": "/device:CPU:0", "attr": {"num_host_args": {"i": "0"}, "data_format": {"s": "TkhXQw=="}, "filter_format": {"s": "SFdJTw=="}, "strides": {"list": {"i": ["1", "1", "1", "1"]}}, "num_args": {"i": "1"}, "fused_ops": {"list": {"s": ["Qmlhc0FkZA==", "UmVsdQ=="]}}, "TArgs": {"list": {"type": ["DT_FLOAT"]}}, "padding": {"s": "U0FNRQ=="}, "use_cudnn_on_gpu": {"b": true}, "leakyrelu_alpha": {"f": 0.2}, "epsilon": {"f": 0.0}, "T": {"type": "DT_FLOAT"}, "explicit_paddings": {"list": {}}, "dilations": {"list": {"i": ["1", "1", "1", "1"]}}}}, {"name": "StatefulPartitionedCall/sequential_2_1/inception_v3_1/batch_normalization_152_1/batchnorm/add_1", "op": "_FusedConv2D", "input": ["StatefulPartitionedCall/sequential_2_1/inception_v3_1/activation_151_1/Relu", "StatefulPartitionedCall/sequential_2_1/inception_v3_1/conv2d_152_1/convolution/merged_input", "StatefulPartitionedCall/sequential_2_1/inception_v3_1/batch_normalization_152_1/batchnorm/sub"], "device": "/device:CPU:0", "attr": {"num_host_args": {"i": "0"}, "data_format": {"s": "TkhXQw=="}, "filter_format": {"s": "SFdJTw=="}, "strides": {"list": {"i": ["1", "1", "1", "1"]}}, "num_args": {"i": "1"}, "fused_ops": {"list": {"s": ["Qmlhc0FkZA=="]}}, "TArgs": {"list": {"type": ["DT_FLOAT"]}}, "padding": {"s": "U0FNRQ=="}, "use_cudnn_on_gpu": {"b": true}, "leakyrelu_alpha": {"f": 0.2}, "epsilon": {"f": 0.0}, "T": {"type": "DT_FLOAT"}, "explicit_paddings": {"list": {}}, "dilations": {"list": {"i": ["1", "1", "1", "1"]}}}}, {"name": "StatefulPartitionedCall/sequential_2_1/inception_v3_1/mixed6_1/concat", "op": "ConcatV2", "input": ["StatefulPartitionedCall/sequential_2_1/inception_v3_1/batch_normalization_144_1/batchnorm/add_1", "StatefulPartitionedCall/sequential_2_1/inception_v3_1/batch_normalization_147_1/batchnorm/add_1", "StatefulPartitionedCall/sequential_2_1/inception_v3_1/batch_normalization_152_1/batchnorm/add_1", "StatefulPartitionedCall/sequential_2_1/inception_v3_1/batch_normalization_153_1/batchnorm/add_1", "StatefulPartitionedCall/sequential_2_1/inception_v3_1/mixed6_1/concat/axis"], "attr": {"N": {"i": "4"}, "T": {"type": "DT_FLOAT"}, "Tidx": {"type": "DT_INT32"}}}, {"name": "StatefulPartitionedCall/sequential_2_1/inception_v3_1/activation_144_1/Relu", "op": "Relu", "input": ["StatefulPartitionedCall/sequential_2_1/inception_v3_1/mixed6_1/concat"], "attr": {"T": {"type": "DT_FLOAT"}}}, {"name": "StatefulPartitionedCall/sequential_2_1/inception_v3_1/batch_normalization_154_1/batchnorm/add_1", "op": "_FusedConv2D", "input": ["StatefulPartitionedCall/sequential_2_1/inception_v3_1/activation_144_1/Relu", "StatefulPartitionedCall/sequential_2_1/inception_v3_1/conv2d_154_1/convolution/merged_input", "StatefulPartitionedCall/sequential_2_1/inception_v3_1/batch_normalization_154_1/batchnorm/sub"], "device": "/device:CPU:0", "attr": {"num_host_args": {"i": "0"}, "data_format": {"s": "TkhXQw=="}, "filter_format": {"s": "SFdJTw=="}, "fused_ops": {"list": {"s": ["Qmlhc0FkZA=="]}}, "num_args": {"i": "1"}, "strides": {"list": {"i": ["1", "1", "1", "1"]}}, "TArgs": {"list": {"type": ["DT_FLOAT"]}}, "padding": {"s": "U0FNRQ=="}, "use_cudnn_on_gpu": {"b": true}, "leakyrelu_alpha": {"f": 0.2}, "epsilon": {"f": 0.0}, "T": {"type": "DT_FLOAT"}, "explicit_paddings": {"list": {}}, "dilations": {"list": {"i": ["1", "1", "1", "1"]}}}}, {"name": "StatefulPartitionedCall/sequential_2_1/inception_v3_1/activation_155_1/Relu", "op": "_FusedConv2D", "input": ["StatefulPartitionedCall/sequential_2_1/inception_v3_1/activation_144_1/Relu", "StatefulPartitionedCall/sequential_2_1/inception_v3_1/conv2d_155_1/convolution/merged_input", "StatefulPartitionedCall/sequential_2_1/inception_v3_1/batch_normalization_155_1/batchnorm/sub"], "device": "/device:CPU:0", "attr": {"num_host_args": {"i": "0"}, "data_format": {"s": "TkhXQw=="}, "filter_format": {"s": "SFdJTw=="}, "strides": {"list": {"i": ["1", "1", "1", "1"]}}, "num_args": {"i": "1"}, "fused_ops": {"list": {"s": ["Qmlhc0FkZA==", "UmVsdQ=="]}}, "TArgs": {"list": {"type": ["DT_FLOAT"]}}, "padding": {"s": "U0FNRQ=="}, "use_cudnn_on_gpu": {"b": true}, "leakyrelu_alpha": {"f": 0.2}, "epsilon": {"f": 0.0}, "T": {"type": "DT_FLOAT"}, "explicit_paddings": {"list": {}}, "dilations": {"list": {"i": ["1", "1", "1", "1"]}}}}, {"name": "StatefulPartitionedCall/sequential_2_1/inception_v3_1/activation_158_1/Relu", "op": "_FusedConv2D", "input": ["StatefulPartitionedCall/sequential_2_1/inception_v3_1/activation_144_1/Relu", "StatefulPartitionedCall/sequential_2_1/inception_v3_1/conv2d_158_1/convolution/merged_input", "StatefulPartitionedCall/sequential_2_1/inception_v3_1/batch_normalization_158_1/batchnorm/sub"], "device": "/device:CPU:0", "attr": {"num_host_args": {"i": "0"}, "data_format": {"s": "TkhXQw=="}, "filter_format": {"s": "SFdJTw=="}, "fused_ops": {"list": {"s": ["Qmlhc0FkZA==", "UmVsdQ=="]}}, "num_args": {"i": "1"}, "strides": {"list": {"i": ["1", "1", "1", "1"]}}, "TArgs": {"list": {"type": ["DT_FLOAT"]}}, "padding": {"s": "U0FNRQ=="}, "use_cudnn_on_gpu": {"b": true}, "leakyrelu_alpha": {"f": 0.2}, "epsilon": {"f": 0.0}, "T": {"type": "DT_FLOAT"}, "explicit_paddings": {"list": {}}, "dilations": {"list": {"i": ["1", "1", "1", "1"]}}}}, {"name": "StatefulPartitionedCall/sequential_2_1/inception_v3_1/average_pooling2d_15_1/AvgPool", "op": "AvgPool", "input": ["StatefulPartitionedCall/sequential_2_1/inception_v3_1/activation_144_1/Relu"], "attr": {"padding": {"s": "U0FNRQ=="}, "data_format": {"s": "TkhXQw=="}, "T": {"type": "DT_FLOAT"}, "ksize": {"list": {"i": ["1", "3", "3", "1"]}}, "strides": {"list": {"i": ["1", "1", "1", "1"]}}}}, {"name": "StatefulPartitionedCall/sequential_2_1/inception_v3_1/activation_156_1/Relu", "op": "_FusedConv2D", "input": ["StatefulPartitionedCall/sequential_2_1/inception_v3_1/activation_155_1/Relu", "StatefulPartitionedCall/sequential_2_1/inception_v3_1/conv2d_156_1/convolution/merged_input", "StatefulPartitionedCall/sequential_2_1/inception_v3_1/batch_normalization_156_1/batchnorm/sub"], "device": "/device:CPU:0", "attr": {"num_host_args": {"i": "0"}, "data_format": {"s": "TkhXQw=="}, "filter_format": {"s": "SFdJTw=="}, "strides": {"list": {"i": ["1", "1", "1", "1"]}}, "num_args": {"i": "1"}, "fused_ops": {"list": {"s": ["Qmlhc0FkZA==", "UmVsdQ=="]}}, "TArgs": {"list": {"type": ["DT_FLOAT"]}}, "padding": {"s": "U0FNRQ=="}, "use_cudnn_on_gpu": {"b": true}, "leakyrelu_alpha": {"f": 0.2}, "epsilon": {"f": 0.0}, "T": {"type": "DT_FLOAT"}, "explicit_paddings": {"list": {}}, "dilations": {"list": {"i": ["1", "1", "1", "1"]}}}}, {"name": "StatefulPartitionedCall/sequential_2_1/inception_v3_1/activation_159_1/Relu", "op": "_FusedConv2D", "input": ["StatefulPartitionedCall/sequential_2_1/inception_v3_1/activation_158_1/Relu", "StatefulPartitionedCall/sequential_2_1/inception_v3_1/conv2d_159_1/convolution/merged_input", "StatefulPartitionedCall/sequential_2_1/inception_v3_1/batch_normalization_159_1/batchnorm/sub"], "device": "/device:CPU:0", "attr": {"num_host_args": {"i": "0"}, "data_format": {"s": "TkhXQw=="}, "filter_format": {"s": "SFdJTw=="}, "strides": {"list": {"i": ["1", "1", "1", "1"]}}, "num_args": {"i": "1"}, "fused_ops": {"list": {"s": ["Qmlhc0FkZA==", "UmVsdQ=="]}}, "TArgs": {"list": {"type": ["DT_FLOAT"]}}, "padding": {"s": "U0FNRQ=="}, "use_cudnn_on_gpu": {"b": true}, "leakyrelu_alpha": {"f": 0.2}, "epsilon": {"f": 0.0}, "T": {"type": "DT_FLOAT"}, "explicit_paddings": {"list": {}}, "dilations": {"list": {"i": ["1", "1", "1", "1"]}}}}, {"name": "StatefulPartitionedCall/sequential_2_1/inception_v3_1/batch_normalization_163_1/batchnorm/add_1", "op": "_FusedConv2D", "input": ["StatefulPartitionedCall/sequential_2_1/inception_v3_1/average_pooling2d_15_1/AvgPool", "StatefulPartitionedCall/sequential_2_1/inception_v3_1/conv2d_163_1/convolution/merged_input", "StatefulPartitionedCall/sequential_2_1/inception_v3_1/batch_normalization_163_1/batchnorm/sub"], "device": "/device:CPU:0", "attr": {"num_host_args": {"i": "0"}, "data_format": {"s": "TkhXQw=="}, "filter_format": {"s": "SFdJTw=="}, "strides": {"list": {"i": ["1", "1", "1", "1"]}}, "num_args": {"i": "1"}, "fused_ops": {"list": {"s": ["Qmlhc0FkZA=="]}}, "TArgs": {"list": {"type": ["DT_FLOAT"]}}, "padding": {"s": "U0FNRQ=="}, "use_cudnn_on_gpu": {"b": true}, "leakyrelu_alpha": {"f": 0.2}, "epsilon": {"f": 0.0}, "T": {"type": "DT_FLOAT"}, "explicit_paddings": {"list": {}}, "dilations": {"list": {"i": ["1", "1", "1", "1"]}}}}, {"name": "StatefulPartitionedCall/sequential_2_1/inception_v3_1/batch_normalization_157_1/batchnorm/add_1", "op": "_FusedConv2D", "input": ["StatefulPartitionedCall/sequential_2_1/inception_v3_1/activation_156_1/Relu", "StatefulPartitionedCall/sequential_2_1/inception_v3_1/conv2d_157_1/convolution/merged_input", "StatefulPartitionedCall/sequential_2_1/inception_v3_1/batch_normalization_157_1/batchnorm/sub"], "device": "/device:CPU:0", "attr": {"num_host_args": {"i": "0"}, "data_format": {"s": "TkhXQw=="}, "filter_format": {"s": "SFdJTw=="}, "fused_ops": {"list": {"s": ["Qmlhc0FkZA=="]}}, "num_args": {"i": "1"}, "strides": {"list": {"i": ["1", "1", "1", "1"]}}, "TArgs": {"list": {"type": ["DT_FLOAT"]}}, "padding": {"s": "U0FNRQ=="}, "use_cudnn_on_gpu": {"b": true}, "leakyrelu_alpha": {"f": 0.2}, "epsilon": {"f": 0.0}, "T": {"type": "DT_FLOAT"}, "explicit_paddings": {"list": {}}, "dilations": {"list": {"i": ["1", "1", "1", "1"]}}}}, {"name": "StatefulPartitionedCall/sequential_2_1/inception_v3_1/activation_160_1/Relu", "op": "_FusedConv2D", "input": ["StatefulPartitionedCall/sequential_2_1/inception_v3_1/activation_159_1/Relu", "StatefulPartitionedCall/sequential_2_1/inception_v3_1/conv2d_160_1/convolution/merged_input", "StatefulPartitionedCall/sequential_2_1/inception_v3_1/batch_normalization_160_1/batchnorm/sub"], "device": "/device:CPU:0", "attr": {"num_host_args": {"i": "0"}, "data_format": {"s": "TkhXQw=="}, "filter_format": {"s": "SFdJTw=="}, "strides": {"list": {"i": ["1", "1", "1", "1"]}}, "num_args": {"i": "1"}, "fused_ops": {"list": {"s": ["Qmlhc0FkZA==", "UmVsdQ=="]}}, "TArgs": {"list": {"type": ["DT_FLOAT"]}}, "padding": {"s": "U0FNRQ=="}, "use_cudnn_on_gpu": {"b": true}, "leakyrelu_alpha": {"f": 0.2}, "epsilon": {"f": 0.0}, "T": {"type": "DT_FLOAT"}, "explicit_paddings": {"list": {}}, "dilations": {"list": {"i": ["1", "1", "1", "1"]}}}}, {"name": "StatefulPartitionedCall/sequential_2_1/inception_v3_1/activation_161_1/Relu", "op": "_FusedConv2D", "input": ["StatefulPartitionedCall/sequential_2_1/inception_v3_1/activation_160_1/Relu", "StatefulPartitionedCall/sequential_2_1/inception_v3_1/conv2d_161_1/convolution/merged_input", "StatefulPartitionedCall/sequential_2_1/inception_v3_1/batch_normalization_161_1/batchnorm/sub"], "device": "/device:CPU:0", "attr": {"num_host_args": {"i": "0"}, "data_format": {"s": "TkhXQw=="}, "filter_format": {"s": "SFdJTw=="}, "fused_ops": {"list": {"s": ["Qmlhc0FkZA==", "UmVsdQ=="]}}, "num_args": {"i": "1"}, "strides": {"list": {"i": ["1", "1", "1", "1"]}}, "TArgs": {"list": {"type": ["DT_FLOAT"]}}, "padding": {"s": "U0FNRQ=="}, "use_cudnn_on_gpu": {"b": true}, "leakyrelu_alpha": {"f": 0.2}, "epsilon": {"f": 0.0}, "T": {"type": "DT_FLOAT"}, "explicit_paddings": {"list": {}}, "dilations": {"list": {"i": ["1", "1", "1", "1"]}}}}, {"name": "StatefulPartitionedCall/sequential_2_1/inception_v3_1/batch_normalization_162_1/batchnorm/add_1", "op": "_FusedConv2D", "input": ["StatefulPartitionedCall/sequential_2_1/inception_v3_1/activation_161_1/Relu", "StatefulPartitionedCall/sequential_2_1/inception_v3_1/conv2d_162_1/convolution/merged_input", "StatefulPartitionedCall/sequential_2_1/inception_v3_1/batch_normalization_162_1/batchnorm/sub"], "device": "/device:CPU:0", "attr": {"num_host_args": {"i": "0"}, "data_format": {"s": "TkhXQw=="}, "filter_format": {"s": "SFdJTw=="}, "strides": {"list": {"i": ["1", "1", "1", "1"]}}, "num_args": {"i": "1"}, "fused_ops": {"list": {"s": ["Qmlhc0FkZA=="]}}, "TArgs": {"list": {"type": ["DT_FLOAT"]}}, "padding": {"s": "U0FNRQ=="}, "use_cudnn_on_gpu": {"b": true}, "leakyrelu_alpha": {"f": 0.2}, "epsilon": {"f": 0.0}, "T": {"type": "DT_FLOAT"}, "explicit_paddings": {"list": {}}, "dilations": {"list": {"i": ["1", "1", "1", "1"]}}}}, {"name": "StatefulPartitionedCall/sequential_2_1/inception_v3_1/mixed7_1/concat", "op": "ConcatV2", "input": ["StatefulPartitionedCall/sequential_2_1/inception_v3_1/batch_normalization_154_1/batchnorm/add_1", "StatefulPartitionedCall/sequential_2_1/inception_v3_1/batch_normalization_157_1/batchnorm/add_1", "StatefulPartitionedCall/sequential_2_1/inception_v3_1/batch_normalization_162_1/batchnorm/add_1", "StatefulPartitionedCall/sequential_2_1/inception_v3_1/batch_normalization_163_1/batchnorm/add_1", "StatefulPartitionedCall/sequential_2_1/inception_v3_1/mixed7_1/concat/axis"], "attr": {"N": {"i": "4"}, "Tidx": {"type": "DT_INT32"}, "T": {"type": "DT_FLOAT"}}}, {"name": "StatefulPartitionedCall/sequential_2_1/inception_v3_1/activation_154_1/Relu", "op": "Relu", "input": ["StatefulPartitionedCall/sequential_2_1/inception_v3_1/mixed7_1/concat"], "attr": {"T": {"type": "DT_FLOAT"}}}, {"name": "StatefulPartitionedCall/sequential_2_1/inception_v3_1/activation_164_1/Relu", "op": "_FusedConv2D", "input": ["StatefulPartitionedCall/sequential_2_1/inception_v3_1/activation_154_1/Relu", "StatefulPartitionedCall/sequential_2_1/inception_v3_1/conv2d_164_1/convolution/merged_input", "StatefulPartitionedCall/sequential_2_1/inception_v3_1/batch_normalization_164_1/batchnorm/sub"], "device": "/device:CPU:0", "attr": {"num_host_args": {"i": "0"}, "data_format": {"s": "TkhXQw=="}, "filter_format": {"s": "SFdJTw=="}, "strides": {"list": {"i": ["1", "1", "1", "1"]}}, "num_args": {"i": "1"}, "fused_ops": {"list": {"s": ["Qmlhc0FkZA==", "UmVsdQ=="]}}, "TArgs": {"list": {"type": ["DT_FLOAT"]}}, "padding": {"s": "U0FNRQ=="}, "use_cudnn_on_gpu": {"b": true}, "leakyrelu_alpha": {"f": 0.2}, "epsilon": {"f": 0.0}, "T": {"type": "DT_FLOAT"}, "explicit_paddings": {"list": {}}, "dilations": {"list": {"i": ["1", "1", "1", "1"]}}}}, {"name": "StatefulPartitionedCall/sequential_2_1/inception_v3_1/activation_166_1/Relu", "op": "_FusedConv2D", "input": ["StatefulPartitionedCall/sequential_2_1/inception_v3_1/activation_154_1/Relu", "StatefulPartitionedCall/sequential_2_1/inception_v3_1/conv2d_166_1/convolution/merged_input", "StatefulPartitionedCall/sequential_2_1/inception_v3_1/batch_normalization_166_1/batchnorm/sub"], "device": "/device:CPU:0", "attr": {"num_host_args": {"i": "0"}, "data_format": {"s": "TkhXQw=="}, "filter_format": {"s": "SFdJTw=="}, "strides": {"list": {"i": ["1", "1", "1", "1"]}}, "num_args": {"i": "1"}, "fused_ops": {"list": {"s": ["Qmlhc0FkZA==", "UmVsdQ=="]}}, "TArgs": {"list": {"type": ["DT_FLOAT"]}}, "padding": {"s": "U0FNRQ=="}, "use_cudnn_on_gpu": {"b": true}, "leakyrelu_alpha": {"f": 0.2}, "epsilon": {"f": 0.0}, "T": {"type": "DT_FLOAT"}, "explicit_paddings": {"list": {}}, "dilations": {"list": {"i": ["1", "1", "1", "1"]}}}}, {"name": "StatefulPartitionedCall/sequential_2_1/inception_v3_1/max_pooling2d_7_1/MaxPool2d", "op": "MaxPool", "input": ["StatefulPartitionedCall/sequential_2_1/inception_v3_1/activation_154_1/Relu"], "attr": {"ksize": {"list": {"i": ["1", "3", "3", "1"]}}, "data_format": {"s": "TkhXQw=="}, "T": {"type": "DT_FLOAT"}, "explicit_paddings": {"list": {}}, "padding": {"s": "VkFMSUQ="}, "strides": {"list": {"i": ["1", "2", "2", "1"]}}}}, {"name": "StatefulPartitionedCall/sequential_2_1/inception_v3_1/activation_165_1/Relu", "op": "_FusedConv2D", "input": ["StatefulPartitionedCall/sequential_2_1/inception_v3_1/activation_164_1/Relu", "StatefulPartitionedCall/sequential_2_1/inception_v3_1/conv2d_165_1/convolution/merged_input", "StatefulPartitionedCall/sequential_2_1/inception_v3_1/batch_normalization_165_1/batchnorm/sub"], "device": "/device:CPU:0", "attr": {"num_host_args": {"i": "0"}, "data_format": {"s": "TkhXQw=="}, "filter_format": {"s": "SFdJTw=="}, "fused_ops": {"list": {"s": ["Qmlhc0FkZA==", "UmVsdQ=="]}}, "num_args": {"i": "1"}, "strides": {"list": {"i": ["1", "2", "2", "1"]}}, "TArgs": {"list": {"type": ["DT_FLOAT"]}}, "padding": {"s": "VkFMSUQ="}, "use_cudnn_on_gpu": {"b": true}, "leakyrelu_alpha": {"f": 0.2}, "epsilon": {"f": 0.0}, "T": {"type": "DT_FLOAT"}, "explicit_paddings": {"list": {}}, "dilations": {"list": {"i": ["1", "1", "1", "1"]}}}}, {"name": "StatefulPartitionedCall/sequential_2_1/inception_v3_1/activation_167_1/Relu", "op": "_FusedConv2D", "input": ["StatefulPartitionedCall/sequential_2_1/inception_v3_1/activation_166_1/Relu", "StatefulPartitionedCall/sequential_2_1/inception_v3_1/conv2d_167_1/convolution/merged_input", "StatefulPartitionedCall/sequential_2_1/inception_v3_1/batch_normalization_167_1/batchnorm/sub"], "device": "/device:CPU:0", "attr": {"num_host_args": {"i": "0"}, "data_format": {"s": "TkhXQw=="}, "filter_format": {"s": "SFdJTw=="}, "fused_ops": {"list": {"s": ["Qmlhc0FkZA==", "UmVsdQ=="]}}, "num_args": {"i": "1"}, "strides": {"list": {"i": ["1", "1", "1", "1"]}}, "TArgs": {"list": {"type": ["DT_FLOAT"]}}, "padding": {"s": "U0FNRQ=="}, "use_cudnn_on_gpu": {"b": true}, "leakyrelu_alpha": {"f": 0.2}, "epsilon": {"f": 0.0}, "T": {"type": "DT_FLOAT"}, "explicit_paddings": {"list": {}}, "dilations": {"list": {"i": ["1", "1", "1", "1"]}}}}, {"name": "StatefulPartitionedCall/sequential_2_1/inception_v3_1/activation_168_1/Relu", "op": "_FusedConv2D", "input": ["StatefulPartitionedCall/sequential_2_1/inception_v3_1/activation_167_1/Relu", "StatefulPartitionedCall/sequential_2_1/inception_v3_1/conv2d_168_1/convolution/merged_input", "StatefulPartitionedCall/sequential_2_1/inception_v3_1/batch_normalization_168_1/batchnorm/sub"], "device": "/device:CPU:0", "attr": {"num_host_args": {"i": "0"}, "data_format": {"s": "TkhXQw=="}, "filter_format": {"s": "SFdJTw=="}, "fused_ops": {"list": {"s": ["Qmlhc0FkZA==", "UmVsdQ=="]}}, "num_args": {"i": "1"}, "strides": {"list": {"i": ["1", "1", "1", "1"]}}, "TArgs": {"list": {"type": ["DT_FLOAT"]}}, "padding": {"s": "U0FNRQ=="}, "use_cudnn_on_gpu": {"b": true}, "leakyrelu_alpha": {"f": 0.2}, "epsilon": {"f": 0.0}, "T": {"type": "DT_FLOAT"}, "explicit_paddings": {"list": {}}, "dilations": {"list": {"i": ["1", "1", "1", "1"]}}}}, {"name": "StatefulPartitionedCall/sequential_2_1/inception_v3_1/activation_169_1/Relu", "op": "_FusedConv2D", "input": ["StatefulPartitionedCall/sequential_2_1/inception_v3_1/activation_168_1/Relu", "StatefulPartitionedCall/sequential_2_1/inception_v3_1/conv2d_169_1/convolution/merged_input", "StatefulPartitionedCall/sequential_2_1/inception_v3_1/batch_normalization_169_1/batchnorm/sub"], "device": "/device:CPU:0", "attr": {"num_host_args": {"i": "0"}, "data_format": {"s": "TkhXQw=="}, "filter_format": {"s": "SFdJTw=="}, "strides": {"list": {"i": ["1", "2", "2", "1"]}}, "num_args": {"i": "1"}, "fused_ops": {"list": {"s": ["Qmlhc0FkZA==", "UmVsdQ=="]}}, "TArgs": {"list": {"type": ["DT_FLOAT"]}}, "padding": {"s": "VkFMSUQ="}, "use_cudnn_on_gpu": {"b": true}, "leakyrelu_alpha": {"f": 0.2}, "epsilon": {"f": 0.0}, "T": {"type": "DT_FLOAT"}, "explicit_paddings": {"list": {}}, "dilations": {"list": {"i": ["1", "1", "1", "1"]}}}}, {"name": "StatefulPartitionedCall/sequential_2_1/inception_v3_1/mixed8_1/concat", "op": "ConcatV2", "input": ["StatefulPartitionedCall/sequential_2_1/inception_v3_1/activation_165_1/Relu", "StatefulPartitionedCall/sequential_2_1/inception_v3_1/activation_169_1/Relu", "StatefulPartitionedCall/sequential_2_1/inception_v3_1/max_pooling2d_7_1/MaxPool2d", "StatefulPartitionedCall/sequential_2_1/inception_v3_1/mixed8_1/concat/axis"], "attr": {"N": {"i": "3"}, "T": {"type": "DT_FLOAT"}, "Tidx": {"type": "DT_INT32"}}}, {"name": "StatefulPartitionedCall/sequential_2_1/inception_v3_1/average_pooling2d_16_1/AvgPool", "op": "AvgPool", "input": ["StatefulPartitionedCall/sequential_2_1/inception_v3_1/mixed8_1/concat"], "attr": {"ksize": {"list": {"i": ["1", "3", "3", "1"]}}, "data_format": {"s": "TkhXQw=="}, "T": {"type": "DT_FLOAT"}, "padding": {"s": "U0FNRQ=="}, "strides": {"list": {"i": ["1", "1", "1", "1"]}}}}, {"name": "StatefulPartitionedCall/sequential_2_1/inception_v3_1/batch_normalization_170_1/batchnorm/add_1", "op": "_FusedConv2D", "input": ["StatefulPartitionedCall/sequential_2_1/inception_v3_1/mixed8_1/concat", "StatefulPartitionedCall/sequential_2_1/inception_v3_1/conv2d_170_1/convolution/merged_input", "StatefulPartitionedCall/sequential_2_1/inception_v3_1/batch_normalization_170_1/batchnorm/sub"], "device": "/device:CPU:0", "attr": {"num_host_args": {"i": "0"}, "data_format": {"s": "TkhXQw=="}, "filter_format": {"s": "SFdJTw=="}, "strides": {"list": {"i": ["1", "1", "1", "1"]}}, "num_args": {"i": "1"}, "fused_ops": {"list": {"s": ["Qmlhc0FkZA=="]}}, "TArgs": {"list": {"type": ["DT_FLOAT"]}}, "padding": {"s": "U0FNRQ=="}, "use_cudnn_on_gpu": {"b": true}, "leakyrelu_alpha": {"f": 0.2}, "epsilon": {"f": 0.0}, "T": {"type": "DT_FLOAT"}, "explicit_paddings": {"list": {}}, "dilations": {"list": {"i": ["1", "1", "1", "1"]}}}}, {"name": "StatefulPartitionedCall/sequential_2_1/inception_v3_1/activation_171_1/Relu", "op": "_FusedConv2D", "input": ["StatefulPartitionedCall/sequential_2_1/inception_v3_1/mixed8_1/concat", "StatefulPartitionedCall/sequential_2_1/inception_v3_1/conv2d_171_1/convolution/merged_input", "StatefulPartitionedCall/sequential_2_1/inception_v3_1/batch_normalization_171_1/batchnorm/sub"], "device": "/device:CPU:0", "attr": {"num_host_args": {"i": "0"}, "data_format": {"s": "TkhXQw=="}, "filter_format": {"s": "SFdJTw=="}, "strides": {"list": {"i": ["1", "1", "1", "1"]}}, "num_args": {"i": "1"}, "fused_ops": {"list": {"s": ["Qmlhc0FkZA==", "UmVsdQ=="]}}, "TArgs": {"list": {"type": ["DT_FLOAT"]}}, "padding": {"s": "U0FNRQ=="}, "use_cudnn_on_gpu": {"b": true}, "leakyrelu_alpha": {"f": 0.2}, "epsilon": {"f": 0.0}, "T": {"type": "DT_FLOAT"}, "explicit_paddings": {"list": {}}, "dilations": {"list": {"i": ["1", "1", "1", "1"]}}}}, {"name": "StatefulPartitionedCall/sequential_2_1/inception_v3_1/activation_174_1/Relu", "op": "_FusedConv2D", "input": ["StatefulPartitionedCall/sequential_2_1/inception_v3_1/mixed8_1/concat", "StatefulPartitionedCall/sequential_2_1/inception_v3_1/conv2d_174_1/convolution/merged_input", "StatefulPartitionedCall/sequential_2_1/inception_v3_1/batch_normalization_174_1/batchnorm/sub"], "device": "/device:CPU:0", "attr": {"num_host_args": {"i": "0"}, "data_format": {"s": "TkhXQw=="}, "filter_format": {"s": "SFdJTw=="}, "fused_ops": {"list": {"s": ["Qmlhc0FkZA==", "UmVsdQ=="]}}, "num_args": {"i": "1"}, "strides": {"list": {"i": ["1", "1", "1", "1"]}}, "TArgs": {"list": {"type": ["DT_FLOAT"]}}, "padding": {"s": "U0FNRQ=="}, "use_cudnn_on_gpu": {"b": true}, "leakyrelu_alpha": {"f": 0.2}, "epsilon": {"f": 0.0}, "T": {"type": "DT_FLOAT"}, "explicit_paddings": {"list": {}}, "dilations": {"list": {"i": ["1", "1", "1", "1"]}}}}, {"name": "StatefulPartitionedCall/sequential_2_1/inception_v3_1/batch_normalization_178_1/batchnorm/add_1", "op": "_FusedConv2D", "input": ["StatefulPartitionedCall/sequential_2_1/inception_v3_1/average_pooling2d_16_1/AvgPool", "StatefulPartitionedCall/sequential_2_1/inception_v3_1/conv2d_178_1/convolution/merged_input", "StatefulPartitionedCall/sequential_2_1/inception_v3_1/batch_normalization_178_1/batchnorm/sub"], "device": "/device:CPU:0", "attr": {"num_host_args": {"i": "0"}, "data_format": {"s": "TkhXQw=="}, "filter_format": {"s": "SFdJTw=="}, "fused_ops": {"list": {"s": ["Qmlhc0FkZA=="]}}, "num_args": {"i": "1"}, "strides": {"list": {"i": ["1", "1", "1", "1"]}}, "TArgs": {"list": {"type": ["DT_FLOAT"]}}, "padding": {"s": "U0FNRQ=="}, "use_cudnn_on_gpu": {"b": true}, "leakyrelu_alpha": {"f": 0.2}, "epsilon": {"f": 0.0}, "T": {"type": "DT_FLOAT"}, "explicit_paddings": {"list": {}}, "dilations": {"list": {"i": ["1", "1", "1", "1"]}}}}, {"name": "StatefulPartitionedCall/sequential_2_1/inception_v3_1/batch_normalization_172_1/batchnorm/add_1", "op": "_FusedConv2D", "input": ["StatefulPartitionedCall/sequential_2_1/inception_v3_1/activation_171_1/Relu", "StatefulPartitionedCall/sequential_2_1/inception_v3_1/conv2d_172_1/convolution/merged_input", "StatefulPartitionedCall/sequential_2_1/inception_v3_1/batch_normalization_172_1/batchnorm/sub"], "device": "/device:CPU:0", "attr": {"num_host_args": {"i": "0"}, "data_format": {"s": "TkhXQw=="}, "filter_format": {"s": "SFdJTw=="}, "fused_ops": {"list": {"s": ["Qmlhc0FkZA=="]}}, "num_args": {"i": "1"}, "strides": {"list": {"i": ["1", "1", "1", "1"]}}, "TArgs": {"list": {"type": ["DT_FLOAT"]}}, "padding": {"s": "U0FNRQ=="}, "use_cudnn_on_gpu": {"b": true}, "leakyrelu_alpha": {"f": 0.2}, "epsilon": {"f": 0.0}, "T": {"type": "DT_FLOAT"}, "explicit_paddings": {"list": {}}, "dilations": {"list": {"i": ["1", "1", "1", "1"]}}}}, {"name": "StatefulPartitionedCall/sequential_2_1/inception_v3_1/batch_normalization_173_1/batchnorm/add_1", "op": "_FusedConv2D", "input": ["StatefulPartitionedCall/sequential_2_1/inception_v3_1/activation_171_1/Relu", "StatefulPartitionedCall/sequential_2_1/inception_v3_1/conv2d_173_1/convolution/merged_input", "StatefulPartitionedCall/sequential_2_1/inception_v3_1/batch_normalization_173_1/batchnorm/sub"], "device": "/device:CPU:0", "attr": {"num_host_args": {"i": "0"}, "data_format": {"s": "TkhXQw=="}, "filter_format": {"s": "SFdJTw=="}, "fused_ops": {"list": {"s": ["Qmlhc0FkZA=="]}}, "num_args": {"i": "1"}, "strides": {"list": {"i": ["1", "1", "1", "1"]}}, "TArgs": {"list": {"type": ["DT_FLOAT"]}}, "padding": {"s": "U0FNRQ=="}, "use_cudnn_on_gpu": {"b": true}, "leakyrelu_alpha": {"f": 0.2}, "epsilon": {"f": 0.0}, "T": {"type": "DT_FLOAT"}, "explicit_paddings": {"list": {}}, "dilations": {"list": {"i": ["1", "1", "1", "1"]}}}}, {"name": "StatefulPartitionedCall/sequential_2_1/inception_v3_1/activation_175_1/Relu", "op": "_FusedConv2D", "input": ["StatefulPartitionedCall/sequential_2_1/inception_v3_1/activation_174_1/Relu", "StatefulPartitionedCall/sequential_2_1/inception_v3_1/conv2d_175_1/convolution/merged_input", "StatefulPartitionedCall/sequential_2_1/inception_v3_1/batch_normalization_175_1/batchnorm/sub"], "device": "/device:CPU:0", "attr": {"num_host_args": {"i": "0"}, "data_format": {"s": "TkhXQw=="}, "filter_format": {"s": "SFdJTw=="}, "fused_ops": {"list": {"s": ["Qmlhc0FkZA==", "UmVsdQ=="]}}, "num_args": {"i": "1"}, "strides": {"list": {"i": ["1", "1", "1", "1"]}}, "TArgs": {"list": {"type": ["DT_FLOAT"]}}, "padding": {"s": "U0FNRQ=="}, "use_cudnn_on_gpu": {"b": true}, "leakyrelu_alpha": {"f": 0.2}, "epsilon": {"f": 0.0}, "T": {"type": "DT_FLOAT"}, "explicit_paddings": {"list": {}}, "dilations": {"list": {"i": ["1", "1", "1", "1"]}}}}, {"name": "StatefulPartitionedCall/sequential_2_1/inception_v3_1/batch_normalization_177_1/batchnorm/add_1", "op": "_FusedConv2D", "input": ["StatefulPartitionedCall/sequential_2_1/inception_v3_1/activation_175_1/Relu", "StatefulPartitionedCall/sequential_2_1/inception_v3_1/conv2d_177_1/convolution/merged_input", "StatefulPartitionedCall/sequential_2_1/inception_v3_1/batch_normalization_177_1/batchnorm/sub"], "device": "/device:CPU:0", "attr": {"num_host_args": {"i": "0"}, "data_format": {"s": "TkhXQw=="}, "filter_format": {"s": "SFdJTw=="}, "fused_ops": {"list": {"s": ["Qmlhc0FkZA=="]}}, "num_args": {"i": "1"}, "strides": {"list": {"i": ["1", "1", "1", "1"]}}, "TArgs": {"list": {"type": ["DT_FLOAT"]}}, "padding": {"s": "U0FNRQ=="}, "use_cudnn_on_gpu": {"b": true}, "leakyrelu_alpha": {"f": 0.2}, "epsilon": {"f": 0.0}, "T": {"type": "DT_FLOAT"}, "explicit_paddings": {"list": {}}, "dilations": {"list": {"i": ["1", "1", "1", "1"]}}}}, {"name": "StatefulPartitionedCall/sequential_2_1/inception_v3_1/batch_normalization_176_1/batchnorm/add_1", "op": "_FusedConv2D", "input": ["StatefulPartitionedCall/sequential_2_1/inception_v3_1/activation_175_1/Relu", "StatefulPartitionedCall/sequential_2_1/inception_v3_1/conv2d_176_1/convolution/merged_input", "StatefulPartitionedCall/sequential_2_1/inception_v3_1/batch_normalization_176_1/batchnorm/sub"], "device": "/device:CPU:0", "attr": {"num_host_args": {"i": "0"}, "data_format": {"s": "TkhXQw=="}, "filter_format": {"s": "SFdJTw=="}, "fused_ops": {"list": {"s": ["Qmlhc0FkZA=="]}}, "num_args": {"i": "1"}, "strides": {"list": {"i": ["1", "1", "1", "1"]}}, "TArgs": {"list": {"type": ["DT_FLOAT"]}}, "padding": {"s": "U0FNRQ=="}, "use_cudnn_on_gpu": {"b": true}, "leakyrelu_alpha": {"f": 0.2}, "epsilon": {"f": 0.0}, "T": {"type": "DT_FLOAT"}, "explicit_paddings": {"list": {}}, "dilations": {"list": {"i": ["1", "1", "1", "1"]}}}}, {"name": "StatefulPartitionedCall/sequential_2_1/inception_v3_1/mixed9_1/concat", "op": "ConcatV2", "input": ["StatefulPartitionedCall/sequential_2_1/inception_v3_1/batch_normalization_170_1/batchnorm/add_1", "StatefulPartitionedCall/sequential_2_1/inception_v3_1/batch_normalization_172_1/batchnorm/add_1", "StatefulPartitionedCall/sequential_2_1/inception_v3_1/batch_normalization_173_1/batchnorm/add_1", "StatefulPartitionedCall/sequential_2_1/inception_v3_1/batch_normalization_176_1/batchnorm/add_1", "StatefulPartitionedCall/sequential_2_1/inception_v3_1/batch_normalization_177_1/batchnorm/add_1", "StatefulPartitionedCall/sequential_2_1/inception_v3_1/batch_normalization_178_1/batchnorm/add_1", "StatefulPartitionedCall/sequential_2_1/inception_v3_1/mixed9_1/concat/axis"], "attr": {"N": {"i": "6"}, "T": {"type": "DT_FLOAT"}, "Tidx": {"type": "DT_INT32"}}}, {"name": "StatefulPartitionedCall/sequential_2_1/inception_v3_1/activation_170_1/Relu", "op": "Relu", "input": ["StatefulPartitionedCall/sequential_2_1/inception_v3_1/mixed9_1/concat"], "attr": {"T": {"type": "DT_FLOAT"}}}, {"name": "StatefulPartitionedCall/sequential_2_1/inception_v3_1/batch_normalization_179_1/batchnorm/add_1", "op": "_FusedConv2D", "input": ["StatefulPartitionedCall/sequential_2_1/inception_v3_1/activation_170_1/Relu", "StatefulPartitionedCall/sequential_2_1/inception_v3_1/conv2d_179_1/convolution/merged_input", "StatefulPartitionedCall/sequential_2_1/inception_v3_1/batch_normalization_179_1/batchnorm/sub"], "device": "/device:CPU:0", "attr": {"num_host_args": {"i": "0"}, "data_format": {"s": "TkhXQw=="}, "filter_format": {"s": "SFdJTw=="}, "fused_ops": {"list": {"s": ["Qmlhc0FkZA=="]}}, "num_args": {"i": "1"}, "strides": {"list": {"i": ["1", "1", "1", "1"]}}, "TArgs": {"list": {"type": ["DT_FLOAT"]}}, "padding": {"s": "U0FNRQ=="}, "use_cudnn_on_gpu": {"b": true}, "leakyrelu_alpha": {"f": 0.2}, "epsilon": {"f": 0.0}, "T": {"type": "DT_FLOAT"}, "explicit_paddings": {"list": {}}, "dilations": {"list": {"i": ["1", "1", "1", "1"]}}}}, {"name": "StatefulPartitionedCall/sequential_2_1/inception_v3_1/average_pooling2d_17_1/AvgPool", "op": "AvgPool", "input": ["StatefulPartitionedCall/sequential_2_1/inception_v3_1/activation_170_1/Relu"], "attr": {"ksize": {"list": {"i": ["1", "3", "3", "1"]}}, "data_format": {"s": "TkhXQw=="}, "T": {"type": "DT_FLOAT"}, "padding": {"s": "U0FNRQ=="}, "strides": {"list": {"i": ["1", "1", "1", "1"]}}}}, {"name": "StatefulPartitionedCall/sequential_2_1/inception_v3_1/activation_180_1/Relu", "op": "_FusedConv2D", "input": ["StatefulPartitionedCall/sequential_2_1/inception_v3_1/activation_170_1/Relu", "StatefulPartitionedCall/sequential_2_1/inception_v3_1/conv2d_180_1/convolution/merged_input", "StatefulPartitionedCall/sequential_2_1/inception_v3_1/batch_normalization_180_1/batchnorm/sub"], "device": "/device:CPU:0", "attr": {"num_host_args": {"i": "0"}, "data_format": {"s": "TkhXQw=="}, "filter_format": {"s": "SFdJTw=="}, "strides": {"list": {"i": ["1", "1", "1", "1"]}}, "num_args": {"i": "1"}, "fused_ops": {"list": {"s": ["Qmlhc0FkZA==", "UmVsdQ=="]}}, "TArgs": {"list": {"type": ["DT_FLOAT"]}}, "padding": {"s": "U0FNRQ=="}, "use_cudnn_on_gpu": {"b": true}, "leakyrelu_alpha": {"f": 0.2}, "epsilon": {"f": 0.0}, "T": {"type": "DT_FLOAT"}, "explicit_paddings": {"list": {}}, "dilations": {"list": {"i": ["1", "1", "1", "1"]}}}}, {"name": "StatefulPartitionedCall/sequential_2_1/inception_v3_1/activation_183_1/Relu", "op": "_FusedConv2D", "input": ["StatefulPartitionedCall/sequential_2_1/inception_v3_1/activation_170_1/Relu", "StatefulPartitionedCall/sequential_2_1/inception_v3_1/conv2d_183_1/convolution/merged_input", "StatefulPartitionedCall/sequential_2_1/inception_v3_1/batch_normalization_183_1/batchnorm/sub"], "device": "/device:CPU:0", "attr": {"num_host_args": {"i": "0"}, "data_format": {"s": "TkhXQw=="}, "filter_format": {"s": "SFdJTw=="}, "fused_ops": {"list": {"s": ["Qmlhc0FkZA==", "UmVsdQ=="]}}, "num_args": {"i": "1"}, "strides": {"list": {"i": ["1", "1", "1", "1"]}}, "TArgs": {"list": {"type": ["DT_FLOAT"]}}, "padding": {"s": "U0FNRQ=="}, "use_cudnn_on_gpu": {"b": true}, "leakyrelu_alpha": {"f": 0.2}, "epsilon": {"f": 0.0}, "T": {"type": "DT_FLOAT"}, "explicit_paddings": {"list": {}}, "dilations": {"list": {"i": ["1", "1", "1", "1"]}}}}, {"name": "StatefulPartitionedCall/sequential_2_1/inception_v3_1/batch_normalization_187_1/batchnorm/add_1", "op": "_FusedConv2D", "input": ["StatefulPartitionedCall/sequential_2_1/inception_v3_1/average_pooling2d_17_1/AvgPool", "StatefulPartitionedCall/sequential_2_1/inception_v3_1/conv2d_187_1/convolution/merged_input", "StatefulPartitionedCall/sequential_2_1/inception_v3_1/batch_normalization_187_1/batchnorm/sub"], "device": "/device:CPU:0", "attr": {"num_host_args": {"i": "0"}, "data_format": {"s": "TkhXQw=="}, "filter_format": {"s": "SFdJTw=="}, "fused_ops": {"list": {"s": ["Qmlhc0FkZA=="]}}, "num_args": {"i": "1"}, "strides": {"list": {"i": ["1", "1", "1", "1"]}}, "TArgs": {"list": {"type": ["DT_FLOAT"]}}, "padding": {"s": "U0FNRQ=="}, "use_cudnn_on_gpu": {"b": true}, "leakyrelu_alpha": {"f": 0.2}, "epsilon": {"f": 0.0}, "T": {"type": "DT_FLOAT"}, "explicit_paddings": {"list": {}}, "dilations": {"list": {"i": ["1", "1", "1", "1"]}}}}, {"name": "StatefulPartitionedCall/sequential_2_1/inception_v3_1/batch_normalization_181_1/batchnorm/add_1", "op": "_FusedConv2D", "input": ["StatefulPartitionedCall/sequential_2_1/inception_v3_1/activation_180_1/Relu", "StatefulPartitionedCall/sequential_2_1/inception_v3_1/conv2d_181_1/convolution/merged_input", "StatefulPartitionedCall/sequential_2_1/inception_v3_1/batch_normalization_181_1/batchnorm/sub"], "device": "/device:CPU:0", "attr": {"num_host_args": {"i": "0"}, "data_format": {"s": "TkhXQw=="}, "filter_format": {"s": "SFdJTw=="}, "strides": {"list": {"i": ["1", "1", "1", "1"]}}, "num_args": {"i": "1"}, "fused_ops": {"list": {"s": ["Qmlhc0FkZA=="]}}, "TArgs": {"list": {"type": ["DT_FLOAT"]}}, "padding": {"s": "U0FNRQ=="}, "use_cudnn_on_gpu": {"b": true}, "leakyrelu_alpha": {"f": 0.2}, "epsilon": {"f": 0.0}, "T": {"type": "DT_FLOAT"}, "explicit_paddings": {"list": {}}, "dilations": {"list": {"i": ["1", "1", "1", "1"]}}}}, {"name": "StatefulPartitionedCall/sequential_2_1/inception_v3_1/batch_normalization_182_1/batchnorm/add_1", "op": "_FusedConv2D", "input": ["StatefulPartitionedCall/sequential_2_1/inception_v3_1/activation_180_1/Relu", "StatefulPartitionedCall/sequential_2_1/inception_v3_1/conv2d_182_1/convolution/merged_input", "StatefulPartitionedCall/sequential_2_1/inception_v3_1/batch_normalization_182_1/batchnorm/sub"], "device": "/device:CPU:0", "attr": {"num_host_args": {"i": "0"}, "data_format": {"s": "TkhXQw=="}, "filter_format": {"s": "SFdJTw=="}, "fused_ops": {"list": {"s": ["Qmlhc0FkZA=="]}}, "num_args": {"i": "1"}, "strides": {"list": {"i": ["1", "1", "1", "1"]}}, "TArgs": {"list": {"type": ["DT_FLOAT"]}}, "padding": {"s": "U0FNRQ=="}, "use_cudnn_on_gpu": {"b": true}, "leakyrelu_alpha": {"f": 0.2}, "epsilon": {"f": 0.0}, "T": {"type": "DT_FLOAT"}, "explicit_paddings": {"list": {}}, "dilations": {"list": {"i": ["1", "1", "1", "1"]}}}}, {"name": "StatefulPartitionedCall/sequential_2_1/inception_v3_1/activation_184_1/Relu", "op": "_FusedConv2D", "input": ["StatefulPartitionedCall/sequential_2_1/inception_v3_1/activation_183_1/Relu", "StatefulPartitionedCall/sequential_2_1/inception_v3_1/conv2d_184_1/convolution/merged_input", "StatefulPartitionedCall/sequential_2_1/inception_v3_1/batch_normalization_184_1/batchnorm/sub"], "device": "/device:CPU:0", "attr": {"num_host_args": {"i": "0"}, "data_format": {"s": "TkhXQw=="}, "filter_format": {"s": "SFdJTw=="}, "strides": {"list": {"i": ["1", "1", "1", "1"]}}, "num_args": {"i": "1"}, "fused_ops": {"list": {"s": ["Qmlhc0FkZA==", "UmVsdQ=="]}}, "TArgs": {"list": {"type": ["DT_FLOAT"]}}, "padding": {"s": "U0FNRQ=="}, "use_cudnn_on_gpu": {"b": true}, "leakyrelu_alpha": {"f": 0.2}, "epsilon": {"f": 0.0}, "T": {"type": "DT_FLOAT"}, "explicit_paddings": {"list": {}}, "dilations": {"list": {"i": ["1", "1", "1", "1"]}}}}, {"name": "StatefulPartitionedCall/sequential_2_1/inception_v3_1/batch_normalization_186_1/batchnorm/add_1", "op": "_FusedConv2D", "input": ["StatefulPartitionedCall/sequential_2_1/inception_v3_1/activation_184_1/Relu", "StatefulPartitionedCall/sequential_2_1/inception_v3_1/conv2d_186_1/convolution/merged_input", "StatefulPartitionedCall/sequential_2_1/inception_v3_1/batch_normalization_186_1/batchnorm/sub"], "device": "/device:CPU:0", "attr": {"num_host_args": {"i": "0"}, "data_format": {"s": "TkhXQw=="}, "filter_format": {"s": "SFdJTw=="}, "strides": {"list": {"i": ["1", "1", "1", "1"]}}, "num_args": {"i": "1"}, "fused_ops": {"list": {"s": ["Qmlhc0FkZA=="]}}, "TArgs": {"list": {"type": ["DT_FLOAT"]}}, "padding": {"s": "U0FNRQ=="}, "use_cudnn_on_gpu": {"b": true}, "leakyrelu_alpha": {"f": 0.2}, "epsilon": {"f": 0.0}, "T": {"type": "DT_FLOAT"}, "explicit_paddings": {"list": {}}, "dilations": {"list": {"i": ["1", "1", "1", "1"]}}}}, {"name": "StatefulPartitionedCall/sequential_2_1/inception_v3_1/batch_normalization_185_1/batchnorm/add_1", "op": "_FusedConv2D", "input": ["StatefulPartitionedCall/sequential_2_1/inception_v3_1/activation_184_1/Relu", "StatefulPartitionedCall/sequential_2_1/inception_v3_1/conv2d_185_1/convolution/merged_input", "StatefulPartitionedCall/sequential_2_1/inception_v3_1/batch_normalization_185_1/batchnorm/sub"], "device": "/device:CPU:0", "attr": {"num_host_args": {"i": "0"}, "data_format": {"s": "TkhXQw=="}, "filter_format": {"s": "SFdJTw=="}, "strides": {"list": {"i": ["1", "1", "1", "1"]}}, "num_args": {"i": "1"}, "fused_ops": {"list": {"s": ["Qmlhc0FkZA=="]}}, "TArgs": {"list": {"type": ["DT_FLOAT"]}}, "padding": {"s": "U0FNRQ=="}, "use_cudnn_on_gpu": {"b": true}, "leakyrelu_alpha": {"f": 0.2}, "epsilon": {"f": 0.0}, "T": {"type": "DT_FLOAT"}, "explicit_paddings": {"list": {}}, "dilations": {"list": {"i": ["1", "1", "1", "1"]}}}}, {"name": "StatefulPartitionedCall/sequential_2_1/inception_v3_1/mixed10_1/concat", "op": "ConcatV2", "input": ["StatefulPartitionedCall/sequential_2_1/inception_v3_1/batch_normalization_179_1/batchnorm/add_1", "StatefulPartitionedCall/sequential_2_1/inception_v3_1/batch_normalization_181_1/batchnorm/add_1", "StatefulPartitionedCall/sequential_2_1/inception_v3_1/batch_normalization_182_1/batchnorm/add_1", "StatefulPartitionedCall/sequential_2_1/inception_v3_1/batch_normalization_185_1/batchnorm/add_1", "StatefulPartitionedCall/sequential_2_1/inception_v3_1/batch_normalization_186_1/batchnorm/add_1", "StatefulPartitionedCall/sequential_2_1/inception_v3_1/batch_normalization_187_1/batchnorm/add_1", "StatefulPartitionedCall/sequential_2_1/inception_v3_1/mixed10_1/concat/axis"], "attr": {"N": {"i": "6"}, "Tidx": {"type": "DT_INT32"}, "T": {"type": "DT_FLOAT"}}}, {"name": "StatefulPartitionedCall/sequential_2_1/inception_v3_1/activation_179_1/Relu", "op": "Relu", "input": ["StatefulPartitionedCall/sequential_2_1/inception_v3_1/mixed10_1/concat"], "attr": {"T": {"type": "DT_FLOAT"}}}, {"name": "StatefulPartitionedCall/sequential_2_1/flatten_1_1/Reshape", "op": "Reshape", "input": ["StatefulPartitionedCall/sequential_2_1/inception_v3_1/activation_179_1/Relu", "StatefulPartitionedCall/sequential_2_1/flatten_1_1/Reshape/shape"], "attr": {"T": {"type": "DT_FLOAT"}, "Tshape": {"type": "DT_INT32"}}}, {"name": "StatefulPartitionedCall/sequential_2_1/dense_3_1/Relu", "op": "_FusedMatMul", "input": ["StatefulPartitionedCall/sequential_2_1/flatten_1_1/Reshape", "StatefulPartitionedCall/sequential_2_1/dense_3_1/Cast/ReadVariableOp", "StatefulPartitionedCall/sequential_2_1/dense_3_1/BiasAdd/ReadVariableOp"], "device": "/device:CPU:0", "attr": {"transpose_a": {"b": false}, "transpose_b": {"b": false}, "fused_ops": {"list": {"s": ["Qmlhc0FkZA==", "UmVsdQ=="]}}, "leakyrelu_alpha": {"f": 0.2}, "num_args": {"i": "1"}, "epsilon": {"f": 0.0}, "T": {"type": "DT_FLOAT"}}}, {"name": "StatefulPartitionedCall/sequential_2_1/dense_4_1/Relu", "op": "_FusedMatMul", "input": ["StatefulPartitionedCall/sequential_2_1/dense_3_1/Relu", "StatefulPartitionedCall/sequential_2_1/dense_4_1/Cast/ReadVariableOp", "StatefulPartitionedCall/sequential_2_1/dense_4_1/BiasAdd/ReadVariableOp"], "device": "/device:CPU:0", "attr": {"transpose_a": {"b": false}, "transpose_b": {"b": false}, "fused_ops": {"list": {"s": ["Qmlhc0FkZA==", "UmVsdQ=="]}}, "num_args": {"i": "1"}, "leakyrelu_alpha": {"f": 0.2}, "epsilon": {"f": 0.0}, "T": {"type": "DT_FLOAT"}}}, {"name": "StatefulPartitionedCall/sequential_2_1/dense_5_1/BiasAdd", "op": "_FusedMatMul", "input": ["StatefulPartitionedCall/sequential_2_1/dense_4_1/Relu", "StatefulPartitionedCall/sequential_2_1/dense_5_1/Cast/ReadVariableOp", "StatefulPartitionedCall/sequential_2_1/dense_5_1/BiasAdd/ReadVariableOp"], "device": "/device:CPU:0", "attr": {"transpose_a": {"b": false}, "transpose_b": {"b": false}, "fused_ops": {"list": {"s": ["Qmlhc0FkZA=="]}}, "num_args": {"i": "1"}, "leakyrelu_alpha": {"f": 0.2}, "epsilon": {"f": 0.0}, "T": {"type": "DT_FLOAT"}}}, {"name": "StatefulPartitionedCall/sequential_2_1/dense_5_1/Softmax", "op": "Softmax", "input": ["StatefulPartitionedCall/sequential_2_1/dense_5_1/BiasAdd"], "attr": {"T": {"type": "DT_FLOAT"}}}, {"name": "Identity", "op": "Identity", "input": ["StatefulPartitionedCall/sequential_2_1/dense_5_1/Softmax"], "attr": {"T": {"type": "DT_FLOAT"}}}], "library": {}, "versions": {"producer": 1994}}, "weightsManifest": [{"paths": ["group1-shard1of46.bin", "group1-shard2of46.bin", "group1-shard3of46.bin", "group1-shard4of46.bin", "group1-shard5of46.bin", "group1-shard6of46.bin", "group1-shard7of46.bin", "group1-shard8of46.bin", "group1-shard9of46.bin", "group1-shard10of46.bin", "group1-shard11of46.bin", "group1-shard12of46.bin", "group1-shard13of46.bin", "group1-shard14of46.bin", "group1-shard15of46.bin", "group1-shard16of46.bin", "group1-shard17of46.bin", "group1-shard18of46.bin", "group1-shard19of46.bin", "group1-shard20of46.bin", "group1-shard21of46.bin", "group1-shard22of46.bin", "group1-shard23of46.bin", "group1-shard24of46.bin", "group1-shard25of46.bin", "group1-shard26of46.bin", "group1-shard27of46.bin", "group1-shard28of46.bin", "group1-shard29of46.bin", "group1-shard30of46.bin", "group1-shard31of46.bin", "group1-shard32of46.bin", "group1-shard33of46.bin", "group1-shard34of46.bin", "group1-shard35of46.bin", "group1-shard36of46.bin", "group1-shard37of46.bin", "group1-shard38of46.bin", "group1-shard39of46.bin", "group1-shard40of46.bin", "group1-shard41of46.bin", "group1-shard42of46.bin", "group1-shard43of46.bin", "group1-shard44of46.bin", "group1-shard45of46.bin", "group1-shard46of46.bin"], "weights": [{"name": "StatefulPartitionedCall/sequential_2_1/inception_v3_1/conv2d_179_1/convolution/merged_input", "shape": [1, 1, 2048, 320], "dtype": "float32"}, {"name": "StatefulPartitionedCall/sequential_2_1/inception_v3_1/batch_normalization_179_1/batchnorm/sub", "shape": [1, 1, 1, 320], "dtype": "float32"}, {"name": "StatefulPartitionedCall/sequential_2_1/inception_v3_1/conv2d_181_1/convolution/merged_input", "shape": [1, 3, 384, 384], "dtype": "float32"}, {"name": "StatefulPartitionedCall/sequential_2_1/inception_v3_1/batch_normalization_181_1/batchnorm/sub", "shape": [1, 1, 1, 384], "dtype": "float32"}, {"name": "StatefulPartitionedCall/sequential_2_1/inception_v3_1/conv2d_180_1/convolution/merged_input", "shape": [1, 1, 2048, 384], "dtype": "float32"}, {"name": "StatefulPartitionedCall/sequential_2_1/inception_v3_1/batch_normalization_180_1/batchnorm/sub", "shape": [1, 1, 1, 384], "dtype": "float32"}, {"name": "StatefulPartitionedCall/sequential_2_1/inception_v3_1/conv2d_182_1/convolution/merged_input", "shape": [3, 1, 384, 384], "dtype": "float32"}, {"name": "StatefulPartitionedCall/sequential_2_1/inception_v3_1/batch_normalization_182_1/batchnorm/sub", "shape": [1, 1, 1, 384], "dtype": "float32"}, {"name": "StatefulPartitionedCall/sequential_2_1/inception_v3_1/conv2d_185_1/convolution/merged_input", "shape": [1, 3, 384, 384], "dtype": "float32"}, {"name": "StatefulPartitionedCall/sequential_2_1/inception_v3_1/batch_normalization_185_1/batchnorm/sub", "shape": [1, 1, 1, 384], "dtype": "float32"}, {"name": "StatefulPartitionedCall/sequential_2_1/inception_v3_1/conv2d_183_1/convolution/merged_input", "shape": [1, 1, 2048, 448], "dtype": "float32"}, {"name": "StatefulPartitionedCall/sequential_2_1/inception_v3_1/batch_normalization_183_1/batchnorm/sub", "shape": [1, 1, 1, 448], "dtype": "float32"}, {"name": "StatefulPartitionedCall/sequential_2_1/inception_v3_1/conv2d_184_1/convolution/merged_input", "shape": [3, 3, 448, 384], "dtype": "float32"}, {"name": "StatefulPartitionedCall/sequential_2_1/inception_v3_1/batch_normalization_184_1/batchnorm/sub", "shape": [1, 1, 1, 384], "dtype": "float32"}, {"name": "StatefulPartitionedCall/sequential_2_1/inception_v3_1/conv2d_186_1/convolution/merged_input", "shape": [3, 1, 384, 384], "dtype": "float32"}, {"name": "StatefulPartitionedCall/sequential_2_1/inception_v3_1/batch_normalization_186_1/batchnorm/sub", "shape": [1, 1, 1, 384], "dtype": "float32"}, {"name": "StatefulPartitionedCall/sequential_2_1/inception_v3_1/conv2d_170_1/convolution/merged_input", "shape": [1, 1, 1280, 320], "dtype": "float32"}, {"name": "StatefulPartitionedCall/sequential_2_1/inception_v3_1/batch_normalization_170_1/batchnorm/sub", "shape": [1, 1, 1, 320], "dtype": "float32"}, {"name": "StatefulPartitionedCall/sequential_2_1/inception_v3_1/conv2d_172_1/convolution/merged_input", "shape": [1, 3, 384, 384], "dtype": "float32"}, {"name": "StatefulPartitionedCall/sequential_2_1/inception_v3_1/batch_normalization_172_1/batchnorm/sub", "shape": [1, 1, 1, 384], "dtype": "float32"}, {"name": "StatefulPartitionedCall/sequential_2_1/inception_v3_1/conv2d_171_1/convolution/merged_input", "shape": [1, 1, 1280, 384], "dtype": "float32"}, {"name": "StatefulPartitionedCall/sequential_2_1/inception_v3_1/batch_normalization_171_1/batchnorm/sub", "shape": [1, 1, 1, 384], "dtype": "float32"}, {"name": "StatefulPartitionedCall/sequential_2_1/inception_v3_1/conv2d_173_1/convolution/merged_input", "shape": [3, 1, 384, 384], "dtype": "float32"}, {"name": "StatefulPartitionedCall/sequential_2_1/inception_v3_1/batch_normalization_173_1/batchnorm/sub", "shape": [1, 1, 1, 384], "dtype": "float32"}, {"name": "StatefulPartitionedCall/sequential_2_1/inception_v3_1/conv2d_176_1/convolution/merged_input", "shape": [1, 3, 384, 384], "dtype": "float32"}, {"name": "StatefulPartitionedCall/sequential_2_1/inception_v3_1/batch_normalization_176_1/batchnorm/sub", "shape": [1, 1, 1, 384], "dtype": "float32"}, {"name": "StatefulPartitionedCall/sequential_2_1/inception_v3_1/conv2d_174_1/convolution/merged_input", "shape": [1, 1, 1280, 448], "dtype": "float32"}, {"name": "StatefulPartitionedCall/sequential_2_1/inception_v3_1/batch_normalization_174_1/batchnorm/sub", "shape": [1, 1, 1, 448], "dtype": "float32"}, {"name": "StatefulPartitionedCall/sequential_2_1/inception_v3_1/conv2d_175_1/convolution/merged_input", "shape": [3, 3, 448, 384], "dtype": "float32"}, {"name": "StatefulPartitionedCall/sequential_2_1/inception_v3_1/batch_normalization_175_1/batchnorm/sub", "shape": [1, 1, 1, 384], "dtype": "float32"}, {"name": "StatefulPartitionedCall/sequential_2_1/inception_v3_1/conv2d_177_1/convolution/merged_input", "shape": [3, 1, 384, 384], "dtype": "float32"}, {"name": "StatefulPartitionedCall/sequential_2_1/inception_v3_1/batch_normalization_177_1/batchnorm/sub", "shape": [1, 1, 1, 384], "dtype": "float32"}, {"name": "StatefulPartitionedCall/sequential_2_1/inception_v3_1/conv2d_164_1/convolution/merged_input", "shape": [1, 1, 768, 192], "dtype": "float32"}, {"name": "StatefulPartitionedCall/sequential_2_1/inception_v3_1/batch_normalization_164_1/batchnorm/sub", "shape": [1, 1, 1, 192], "dtype": "float32"}, {"name": "StatefulPartitionedCall/sequential_2_1/inception_v3_1/conv2d_165_1/convolution/merged_input", "shape": [3, 3, 192, 320], "dtype": "float32"}, {"name": "StatefulPartitionedCall/sequential_2_1/inception_v3_1/batch_normalization_165_1/batchnorm/sub", "shape": [1, 1, 1, 320], "dtype": "float32"}, {"name": "StatefulPartitionedCall/sequential_2_1/inception_v3_1/conv2d_166_1/convolution/merged_input", "shape": [1, 1, 768, 192], "dtype": "float32"}, {"name": "StatefulPartitionedCall/sequential_2_1/inception_v3_1/batch_normalization_166_1/batchnorm/sub", "shape": [1, 1, 1, 192], "dtype": "float32"}, {"name": "StatefulPartitionedCall/sequential_2_1/inception_v3_1/conv2d_167_1/convolution/merged_input", "shape": [1, 7, 192, 192], "dtype": "float32"}, {"name": "StatefulPartitionedCall/sequential_2_1/inception_v3_1/batch_normalization_167_1/batchnorm/sub", "shape": [1, 1, 1, 192], "dtype": "float32"}, {"name": "StatefulPartitionedCall/sequential_2_1/inception_v3_1/conv2d_168_1/convolution/merged_input", "shape": [7, 1, 192, 192], "dtype": "float32"}, {"name": "StatefulPartitionedCall/sequential_2_1/inception_v3_1/batch_normalization_168_1/batchnorm/sub", "shape": [1, 1, 1, 192], "dtype": "float32"}, {"name": "StatefulPartitionedCall/sequential_2_1/inception_v3_1/conv2d_169_1/convolution/merged_input", "shape": [3, 3, 192, 192], "dtype": "float32"}, {"name": "StatefulPartitionedCall/sequential_2_1/inception_v3_1/batch_normalization_169_1/batchnorm/sub", "shape": [1, 1, 1, 192], "dtype": "float32"}, {"name": "StatefulPartitionedCall/sequential_2_1/inception_v3_1/conv2d_154_1/convolution/merged_input", "shape": [1, 1, 768, 192], "dtype": "float32"}, {"name": "StatefulPartitionedCall/sequential_2_1/inception_v3_1/batch_normalization_154_1/batchnorm/sub", "shape": [1, 1, 1, 192], "dtype": "float32"}, {"name": "StatefulPartitionedCall/sequential_2_1/inception_v3_1/conv2d_155_1/convolution/merged_input", "shape": [1, 1, 768, 192], "dtype": "float32"}, {"name": "StatefulPartitionedCall/sequential_2_1/inception_v3_1/batch_normalization_155_1/batchnorm/sub", "shape": [1, 1, 1, 192], "dtype": "float32"}, {"name": "StatefulPartitionedCall/sequential_2_1/inception_v3_1/conv2d_156_1/convolution/merged_input", "shape": [1, 7, 192, 192], "dtype": "float32"}, {"name": "StatefulPartitionedCall/sequential_2_1/inception_v3_1/batch_normalization_156_1/batchnorm/sub", "shape": [1, 1, 1, 192], "dtype": "float32"}, {"name": "StatefulPartitionedCall/sequential_2_1/inception_v3_1/conv2d_157_1/convolution/merged_input", "shape": [7, 1, 192, 192], "dtype": "float32"}, {"name": "StatefulPartitionedCall/sequential_2_1/inception_v3_1/batch_normalization_157_1/batchnorm/sub", "shape": [1, 1, 1, 192], "dtype": "float32"}, {"name": "StatefulPartitionedCall/sequential_2_1/inception_v3_1/conv2d_158_1/convolution/merged_input", "shape": [1, 1, 768, 192], "dtype": "float32"}, {"name": "StatefulPartitionedCall/sequential_2_1/inception_v3_1/batch_normalization_158_1/batchnorm/sub", "shape": [1, 1, 1, 192], "dtype": "float32"}, {"name": "StatefulPartitionedCall/sequential_2_1/inception_v3_1/conv2d_159_1/convolution/merged_input", "shape": [7, 1, 192, 192], "dtype": "float32"}, {"name": "StatefulPartitionedCall/sequential_2_1/inception_v3_1/batch_normalization_159_1/batchnorm/sub", "shape": [1, 1, 1, 192], "dtype": "float32"}, {"name": "StatefulPartitionedCall/sequential_2_1/inception_v3_1/conv2d_160_1/convolution/merged_input", "shape": [1, 7, 192, 192], "dtype": "float32"}, {"name": "StatefulPartitionedCall/sequential_2_1/inception_v3_1/batch_normalization_160_1/batchnorm/sub", "shape": [1, 1, 1, 192], "dtype": "float32"}, {"name": "StatefulPartitionedCall/sequential_2_1/inception_v3_1/conv2d_161_1/convolution/merged_input", "shape": [7, 1, 192, 192], "dtype": "float32"}, {"name": "StatefulPartitionedCall/sequential_2_1/inception_v3_1/batch_normalization_161_1/batchnorm/sub", "shape": [1, 1, 1, 192], "dtype": "float32"}, {"name": "StatefulPartitionedCall/sequential_2_1/inception_v3_1/conv2d_162_1/convolution/merged_input", "shape": [1, 7, 192, 192], "dtype": "float32"}, {"name": "StatefulPartitionedCall/sequential_2_1/inception_v3_1/batch_normalization_162_1/batchnorm/sub", "shape": [1, 1, 1, 192], "dtype": "float32"}, {"name": "StatefulPartitionedCall/sequential_2_1/inception_v3_1/conv2d_144_1/convolution/merged_input", "shape": [1, 1, 768, 192], "dtype": "float32"}, {"name": "StatefulPartitionedCall/sequential_2_1/inception_v3_1/batch_normalization_144_1/batchnorm/sub", "shape": [1, 1, 1, 192], "dtype": "float32"}, {"name": "StatefulPartitionedCall/sequential_2_1/inception_v3_1/conv2d_145_1/convolution/merged_input", "shape": [1, 1, 768, 160], "dtype": "float32"}, {"name": "StatefulPartitionedCall/sequential_2_1/inception_v3_1/batch_normalization_145_1/batchnorm/sub", "shape": [1, 1, 1, 160], "dtype": "float32"}, {"name": "StatefulPartitionedCall/sequential_2_1/inception_v3_1/conv2d_146_1/convolution/merged_input", "shape": [1, 7, 160, 160], "dtype": "float32"}, {"name": "StatefulPartitionedCall/sequential_2_1/inception_v3_1/batch_normalization_146_1/batchnorm/sub", "shape": [1, 1, 1, 160], "dtype": "float32"}, {"name": "StatefulPartitionedCall/sequential_2_1/inception_v3_1/conv2d_147_1/convolution/merged_input", "shape": [7, 1, 160, 192], "dtype": "float32"}, {"name": "StatefulPartitionedCall/sequential_2_1/inception_v3_1/batch_normalization_147_1/batchnorm/sub", "shape": [1, 1, 1, 192], "dtype": "float32"}, {"name": "StatefulPartitionedCall/sequential_2_1/inception_v3_1/conv2d_148_1/convolution/merged_input", "shape": [1, 1, 768, 160], "dtype": "float32"}, {"name": "StatefulPartitionedCall/sequential_2_1/inception_v3_1/batch_normalization_148_1/batchnorm/sub", "shape": [1, 1, 1, 160], "dtype": "float32"}, {"name": "StatefulPartitionedCall/sequential_2_1/inception_v3_1/conv2d_149_1/convolution/merged_input", "shape": [7, 1, 160, 160], "dtype": "float32"}, {"name": "StatefulPartitionedCall/sequential_2_1/inception_v3_1/batch_normalization_149_1/batchnorm/sub", "shape": [1, 1, 1, 160], "dtype": "float32"}, {"name": "StatefulPartitionedCall/sequential_2_1/inception_v3_1/conv2d_150_1/convolution/merged_input", "shape": [1, 7, 160, 160], "dtype": "float32"}, {"name": "StatefulPartitionedCall/sequential_2_1/inception_v3_1/batch_normalization_150_1/batchnorm/sub", "shape": [1, 1, 1, 160], "dtype": "float32"}, {"name": "StatefulPartitionedCall/sequential_2_1/inception_v3_1/conv2d_151_1/convolution/merged_input", "shape": [7, 1, 160, 160], "dtype": "float32"}, {"name": "StatefulPartitionedCall/sequential_2_1/inception_v3_1/batch_normalization_151_1/batchnorm/sub", "shape": [1, 1, 1, 160], "dtype": "float32"}, {"name": "StatefulPartitionedCall/sequential_2_1/inception_v3_1/conv2d_152_1/convolution/merged_input", "shape": [1, 7, 160, 192], "dtype": "float32"}, {"name": "StatefulPartitionedCall/sequential_2_1/inception_v3_1/batch_normalization_152_1/batchnorm/sub", "shape": [1, 1, 1, 192], "dtype": "float32"}, {"name": "StatefulPartitionedCall/sequential_2_1/inception_v3_1/conv2d_134_1/convolution/merged_input", "shape": [1, 1, 768, 192], "dtype": "float32"}, {"name": "StatefulPartitionedCall/sequential_2_1/inception_v3_1/batch_normalization_134_1/batchnorm/sub", "shape": [1, 1, 1, 192], "dtype": "float32"}, {"name": "StatefulPartitionedCall/sequential_2_1/inception_v3_1/conv2d_135_1/convolution/merged_input", "shape": [1, 1, 768, 160], "dtype": "float32"}, {"name": "StatefulPartitionedCall/sequential_2_1/inception_v3_1/batch_normalization_135_1/batchnorm/sub", "shape": [1, 1, 1, 160], "dtype": "float32"}, {"name": "StatefulPartitionedCall/sequential_2_1/inception_v3_1/conv2d_136_1/convolution/merged_input", "shape": [1, 7, 160, 160], "dtype": "float32"}, {"name": "StatefulPartitionedCall/sequential_2_1/inception_v3_1/batch_normalization_136_1/batchnorm/sub", "shape": [1, 1, 1, 160], "dtype": "float32"}, {"name": "StatefulPartitionedCall/sequential_2_1/inception_v3_1/conv2d_137_1/convolution/merged_input", "shape": [7, 1, 160, 192], "dtype": "float32"}, {"name": "StatefulPartitionedCall/sequential_2_1/inception_v3_1/batch_normalization_137_1/batchnorm/sub", "shape": [1, 1, 1, 192], "dtype": "float32"}, {"name": "StatefulPartitionedCall/sequential_2_1/inception_v3_1/conv2d_138_1/convolution/merged_input", "shape": [1, 1, 768, 160], "dtype": "float32"}, {"name": "StatefulPartitionedCall/sequential_2_1/inception_v3_1/batch_normalization_138_1/batchnorm/sub", "shape": [1, 1, 1, 160], "dtype": "float32"}, {"name": "StatefulPartitionedCall/sequential_2_1/inception_v3_1/conv2d_139_1/convolution/merged_input", "shape": [7, 1, 160, 160], "dtype": "float32"}, {"name": "StatefulPartitionedCall/sequential_2_1/inception_v3_1/batch_normalization_139_1/batchnorm/sub", "shape": [1, 1, 1, 160], "dtype": "float32"}, {"name": "StatefulPartitionedCall/sequential_2_1/inception_v3_1/conv2d_140_1/convolution/merged_input", "shape": [1, 7, 160, 160], "dtype": "float32"}, {"name": "StatefulPartitionedCall/sequential_2_1/inception_v3_1/batch_normalization_140_1/batchnorm/sub", "shape": [1, 1, 1, 160], "dtype": "float32"}, {"name": "StatefulPartitionedCall/sequential_2_1/inception_v3_1/conv2d_141_1/convolution/merged_input", "shape": [7, 1, 160, 160], "dtype": "float32"}, {"name": "StatefulPartitionedCall/sequential_2_1/inception_v3_1/batch_normalization_141_1/batchnorm/sub", "shape": [1, 1, 1, 160], "dtype": "float32"}, {"name": "StatefulPartitionedCall/sequential_2_1/inception_v3_1/conv2d_142_1/convolution/merged_input", "shape": [1, 7, 160, 192], "dtype": "float32"}, {"name": "StatefulPartitionedCall/sequential_2_1/inception_v3_1/batch_normalization_142_1/batchnorm/sub", "shape": [1, 1, 1, 192], "dtype": "float32"}, {"name": "StatefulPartitionedCall/sequential_2_1/inception_v3_1/conv2d_124_1/convolution/merged_input", "shape": [1, 1, 768, 192], "dtype": "float32"}, {"name": "StatefulPartitionedCall/sequential_2_1/inception_v3_1/batch_normalization_124_1/batchnorm/sub", "shape": [1, 1, 1, 192], "dtype": "float32"}, {"name": "StatefulPartitionedCall/sequential_2_1/inception_v3_1/conv2d_125_1/convolution/merged_input", "shape": [1, 1, 768, 128], "dtype": "float32"}, {"name": "StatefulPartitionedCall/sequential_2_1/inception_v3_1/batch_normalization_125_1/batchnorm/sub", "shape": [1, 1, 1, 128], "dtype": "float32"}, {"name": "StatefulPartitionedCall/sequential_2_1/inception_v3_1/conv2d_126_1/convolution/merged_input", "shape": [1, 7, 128, 128], "dtype": "float32"}, {"name": "StatefulPartitionedCall/sequential_2_1/inception_v3_1/batch_normalization_126_1/batchnorm/sub", "shape": [1, 1, 1, 128], "dtype": "float32"}, {"name": "StatefulPartitionedCall/sequential_2_1/inception_v3_1/conv2d_127_1/convolution/merged_input", "shape": [7, 1, 128, 192], "dtype": "float32"}, {"name": "StatefulPartitionedCall/sequential_2_1/inception_v3_1/batch_normalization_127_1/batchnorm/sub", "shape": [1, 1, 1, 192], "dtype": "float32"}, {"name": "StatefulPartitionedCall/sequential_2_1/inception_v3_1/conv2d_128_1/convolution/merged_input", "shape": [1, 1, 768, 128], "dtype": "float32"}, {"name": "StatefulPartitionedCall/sequential_2_1/inception_v3_1/batch_normalization_128_1/batchnorm/sub", "shape": [1, 1, 1, 128], "dtype": "float32"}, {"name": "StatefulPartitionedCall/sequential_2_1/inception_v3_1/conv2d_129_1/convolution/merged_input", "shape": [7, 1, 128, 128], "dtype": "float32"}, {"name": "StatefulPartitionedCall/sequential_2_1/inception_v3_1/batch_normalization_129_1/batchnorm/sub", "shape": [1, 1, 1, 128], "dtype": "float32"}, {"name": "StatefulPartitionedCall/sequential_2_1/inception_v3_1/conv2d_130_1/convolution/merged_input", "shape": [1, 7, 128, 128], "dtype": "float32"}, {"name": "StatefulPartitionedCall/sequential_2_1/inception_v3_1/batch_normalization_130_1/batchnorm/sub", "shape": [1, 1, 1, 128], "dtype": "float32"}, {"name": "StatefulPartitionedCall/sequential_2_1/inception_v3_1/conv2d_131_1/convolution/merged_input", "shape": [7, 1, 128, 128], "dtype": "float32"}, {"name": "StatefulPartitionedCall/sequential_2_1/inception_v3_1/batch_normalization_131_1/batchnorm/sub", "shape": [1, 1, 1, 128], "dtype": "float32"}, {"name": "StatefulPartitionedCall/sequential_2_1/inception_v3_1/conv2d_132_1/convolution/merged_input", "shape": [1, 7, 128, 192], "dtype": "float32"}, {"name": "StatefulPartitionedCall/sequential_2_1/inception_v3_1/batch_normalization_132_1/batchnorm/sub", "shape": [1, 1, 1, 192], "dtype": "float32"}, {"name": "StatefulPartitionedCall/sequential_2_1/inception_v3_1/conv2d_120_1/convolution/merged_input", "shape": [3, 3, 288, 384], "dtype": "float32"}, {"name": "StatefulPartitionedCall/sequential_2_1/inception_v3_1/batch_normalization_120_1/batchnorm/sub", "shape": [1, 1, 1, 384], "dtype": "float32"}, {"name": "StatefulPartitionedCall/sequential_2_1/inception_v3_1/conv2d_121_1/convolution/merged_input", "shape": [1, 1, 288, 64], "dtype": "float32"}, {"name": "StatefulPartitionedCall/sequential_2_1/inception_v3_1/batch_normalization_121_1/batchnorm/sub", "shape": [1, 1, 1, 64], "dtype": "float32"}, {"name": "StatefulPartitionedCall/sequential_2_1/inception_v3_1/conv2d_122_1/convolution/merged_input", "shape": [3, 3, 64, 96], "dtype": "float32"}, {"name": "StatefulPartitionedCall/sequential_2_1/inception_v3_1/batch_normalization_122_1/batchnorm/sub", "shape": [1, 1, 1, 96], "dtype": "float32"}, {"name": "StatefulPartitionedCall/sequential_2_1/inception_v3_1/conv2d_123_1/convolution/merged_input", "shape": [3, 3, 96, 96], "dtype": "float32"}, {"name": "StatefulPartitionedCall/sequential_2_1/inception_v3_1/batch_normalization_123_1/batchnorm/sub", "shape": [1, 1, 1, 96], "dtype": "float32"}, {"name": "StatefulPartitionedCall/sequential_2_1/inception_v3_1/conv2d_113_1/convolution/merged_input", "shape": [1, 1, 288, 64], "dtype": "float32"}, {"name": "StatefulPartitionedCall/sequential_2_1/inception_v3_1/batch_normalization_113_1/batchnorm/sub", "shape": [1, 1, 1, 64], "dtype": "float32"}, {"name": "StatefulPartitionedCall/sequential_2_1/inception_v3_1/conv2d_114_1/convolution/merged_input", "shape": [1, 1, 288, 48], "dtype": "float32"}, {"name": "StatefulPartitionedCall/sequential_2_1/inception_v3_1/batch_normalization_114_1/batchnorm/sub", "shape": [1, 1, 1, 48], "dtype": "float32"}, {"name": "StatefulPartitionedCall/sequential_2_1/inception_v3_1/conv2d_115_1/convolution/merged_input", "shape": [5, 5, 48, 64], "dtype": "float32"}, {"name": "StatefulPartitionedCall/sequential_2_1/inception_v3_1/batch_normalization_115_1/batchnorm/sub", "shape": [1, 1, 1, 64], "dtype": "float32"}, {"name": "StatefulPartitionedCall/sequential_2_1/inception_v3_1/conv2d_116_1/convolution/merged_input", "shape": [1, 1, 288, 64], "dtype": "float32"}, {"name": "StatefulPartitionedCall/sequential_2_1/inception_v3_1/batch_normalization_116_1/batchnorm/sub", "shape": [1, 1, 1, 64], "dtype": "float32"}, {"name": "StatefulPartitionedCall/sequential_2_1/inception_v3_1/conv2d_117_1/convolution/merged_input", "shape": [3, 3, 64, 96], "dtype": "float32"}, {"name": "StatefulPartitionedCall/sequential_2_1/inception_v3_1/batch_normalization_117_1/batchnorm/sub", "shape": [1, 1, 1, 96], "dtype": "float32"}, {"name": "StatefulPartitionedCall/sequential_2_1/inception_v3_1/conv2d_118_1/convolution/merged_input", "shape": [3, 3, 96, 96], "dtype": "float32"}, {"name": "StatefulPartitionedCall/sequential_2_1/inception_v3_1/batch_normalization_118_1/batchnorm/sub", "shape": [1, 1, 1, 96], "dtype": "float32"}, {"name": "StatefulPartitionedCall/sequential_2_1/inception_v3_1/conv2d_106_1/convolution/merged_input", "shape": [1, 1, 256, 64], "dtype": "float32"}, {"name": "StatefulPartitionedCall/sequential_2_1/inception_v3_1/batch_normalization_106_1/batchnorm/sub", "shape": [1, 1, 1, 64], "dtype": "float32"}, {"name": "StatefulPartitionedCall/sequential_2_1/inception_v3_1/conv2d_107_1/convolution/merged_input", "shape": [1, 1, 256, 48], "dtype": "float32"}, {"name": "StatefulPartitionedCall/sequential_2_1/inception_v3_1/batch_normalization_107_1/batchnorm/sub", "shape": [1, 1, 1, 48], "dtype": "float32"}, {"name": "StatefulPartitionedCall/sequential_2_1/inception_v3_1/conv2d_108_1/convolution/merged_input", "shape": [5, 5, 48, 64], "dtype": "float32"}, {"name": "StatefulPartitionedCall/sequential_2_1/inception_v3_1/batch_normalization_108_1/batchnorm/sub", "shape": [1, 1, 1, 64], "dtype": "float32"}, {"name": "StatefulPartitionedCall/sequential_2_1/inception_v3_1/conv2d_109_1/convolution/merged_input", "shape": [1, 1, 256, 64], "dtype": "float32"}, {"name": "StatefulPartitionedCall/sequential_2_1/inception_v3_1/batch_normalization_109_1/batchnorm/sub", "shape": [1, 1, 1, 64], "dtype": "float32"}, {"name": "StatefulPartitionedCall/sequential_2_1/inception_v3_1/conv2d_110_1/convolution/merged_input", "shape": [3, 3, 64, 96], "dtype": "float32"}, {"name": "StatefulPartitionedCall/sequential_2_1/inception_v3_1/batch_normalization_110_1/batchnorm/sub", "shape": [1, 1, 1, 96], "dtype": "float32"}, {"name": "StatefulPartitionedCall/sequential_2_1/inception_v3_1/conv2d_111_1/convolution/merged_input", "shape": [3, 3, 96, 96], "dtype": "float32"}, {"name": "StatefulPartitionedCall/sequential_2_1/inception_v3_1/batch_normalization_111_1/batchnorm/sub", "shape": [1, 1, 1, 96], "dtype": "float32"}, {"name": "StatefulPartitionedCall/sequential_2_1/inception_v3_1/conv2d_99_1/convolution/merged_input", "shape": [1, 1, 192, 64], "dtype": "float32"}, {"name": "StatefulPartitionedCall/sequential_2_1/inception_v3_1/batch_normalization_99_1/batchnorm/sub", "shape": [1, 1, 1, 64], "dtype": "float32"}, {"name": "StatefulPartitionedCall/sequential_2_1/inception_v3_1/conv2d_100_1/convolution/merged_input", "shape": [1, 1, 192, 48], "dtype": "float32"}, {"name": "StatefulPartitionedCall/sequential_2_1/inception_v3_1/batch_normalization_100_1/batchnorm/sub", "shape": [1, 1, 1, 48], "dtype": "float32"}, {"name": "StatefulPartitionedCall/sequential_2_1/inception_v3_1/conv2d_101_1/convolution/merged_input", "shape": [5, 5, 48, 64], "dtype": "float32"}, {"name": "StatefulPartitionedCall/sequential_2_1/inception_v3_1/batch_normalization_101_1/batchnorm/sub", "shape": [1, 1, 1, 64], "dtype": "float32"}, {"name": "StatefulPartitionedCall/sequential_2_1/inception_v3_1/conv2d_102_1/convolution/merged_input", "shape": [1, 1, 192, 64], "dtype": "float32"}, {"name": "StatefulPartitionedCall/sequential_2_1/inception_v3_1/batch_normalization_102_1/batchnorm/sub", "shape": [1, 1, 1, 64], "dtype": "float32"}, {"name": "StatefulPartitionedCall/sequential_2_1/inception_v3_1/conv2d_103_1/convolution/merged_input", "shape": [3, 3, 64, 96], "dtype": "float32"}, {"name": "StatefulPartitionedCall/sequential_2_1/inception_v3_1/batch_normalization_103_1/batchnorm/sub", "shape": [1, 1, 1, 96], "dtype": "float32"}, {"name": "StatefulPartitionedCall/sequential_2_1/inception_v3_1/conv2d_104_1/convolution/merged_input", "shape": [3, 3, 96, 96], "dtype": "float32"}, {"name": "StatefulPartitionedCall/sequential_2_1/inception_v3_1/batch_normalization_104_1/batchnorm/sub", "shape": [1, 1, 1, 96], "dtype": "float32"}, {"name": "StatefulPartitionedCall/sequential_2_1/inception_v3_1/conv2d_94_1/convolution/merged_input", "shape": [3, 3, 3, 32], "dtype": "float32"}, {"name": "StatefulPartitionedCall/sequential_2_1/inception_v3_1/batch_normalization_94_1/batchnorm/sub", "shape": [1, 1, 1, 32], "dtype": "float32"}, {"name": "StatefulPartitionedCall/sequential_2_1/inception_v3_1/conv2d_95_1/convolution/merged_input", "shape": [3, 3, 32, 32], "dtype": "float32"}, {"name": "StatefulPartitionedCall/sequential_2_1/inception_v3_1/batch_normalization_95_1/batchnorm/sub", "shape": [1, 1, 1, 32], "dtype": "float32"}, {"name": "StatefulPartitionedCall/sequential_2_1/inception_v3_1/conv2d_96_1/convolution/merged_input", "shape": [3, 3, 32, 64], "dtype": "float32"}, {"name": "StatefulPartitionedCall/sequential_2_1/inception_v3_1/batch_normalization_96_1/batchnorm/sub", "shape": [1, 1, 1, 64], "dtype": "float32"}, {"name": "StatefulPartitionedCall/sequential_2_1/inception_v3_1/conv2d_97_1/convolution/merged_input", "shape": [1, 1, 64, 80], "dtype": "float32"}, {"name": "StatefulPartitionedCall/sequential_2_1/inception_v3_1/batch_normalization_97_1/batchnorm/sub", "shape": [1, 1, 1, 80], "dtype": "float32"}, {"name": "StatefulPartitionedCall/sequential_2_1/inception_v3_1/conv2d_98_1/convolution/merged_input", "shape": [3, 3, 80, 192], "dtype": "float32"}, {"name": "StatefulPartitionedCall/sequential_2_1/inception_v3_1/batch_normalization_98_1/batchnorm/sub", "shape": [1, 1, 1, 192], "dtype": "float32"}, {"name": "StatefulPartitionedCall/sequential_2_1/inception_v3_1/conv2d_105_1/convolution/merged_input", "shape": [1, 1, 192, 32], "dtype": "float32"}, {"name": "StatefulPartitionedCall/sequential_2_1/inception_v3_1/batch_normalization_105_1/batchnorm/sub", "shape": [1, 1, 1, 32], "dtype": "float32"}, {"name": "StatefulPartitionedCall/sequential_2_1/inception_v3_1/mixed0_1/concat/axis", "shape": [], "dtype": "int32"}, {"name": "StatefulPartitionedCall/sequential_2_1/inception_v3_1/conv2d_112_1/convolution/merged_input", "shape": [1, 1, 256, 64], "dtype": "float32"}, {"name": "StatefulPartitionedCall/sequential_2_1/inception_v3_1/batch_normalization_112_1/batchnorm/sub", "shape": [1, 1, 1, 64], "dtype": "float32"}, {"name": "StatefulPartitionedCall/sequential_2_1/inception_v3_1/mixed1_1/concat/axis", "shape": [], "dtype": "int32"}, {"name": "StatefulPartitionedCall/sequential_2_1/inception_v3_1/conv2d_119_1/convolution/merged_input", "shape": [1, 1, 288, 64], "dtype": "float32"}, {"name": "StatefulPartitionedCall/sequential_2_1/inception_v3_1/batch_normalization_119_1/batchnorm/sub", "shape": [1, 1, 1, 64], "dtype": "float32"}, {"name": "StatefulPartitionedCall/sequential_2_1/inception_v3_1/mixed2_1/concat/axis", "shape": [], "dtype": "int32"}, {"name": "StatefulPartitionedCall/sequential_2_1/inception_v3_1/mixed3_1/concat/axis", "shape": [], "dtype": "int32"}, {"name": "StatefulPartitionedCall/sequential_2_1/inception_v3_1/conv2d_133_1/convolution/merged_input", "shape": [1, 1, 768, 192], "dtype": "float32"}, {"name": "StatefulPartitionedCall/sequential_2_1/inception_v3_1/batch_normalization_133_1/batchnorm/sub", "shape": [1, 1, 1, 192], "dtype": "float32"}, {"name": "StatefulPartitionedCall/sequential_2_1/inception_v3_1/mixed4_1/concat/axis", "shape": [], "dtype": "int32"}, {"name": "StatefulPartitionedCall/sequential_2_1/inception_v3_1/conv2d_143_1/convolution/merged_input", "shape": [1, 1, 768, 192], "dtype": "float32"}, {"name": "StatefulPartitionedCall/sequential_2_1/inception_v3_1/batch_normalization_143_1/batchnorm/sub", "shape": [1, 1, 1, 192], "dtype": "float32"}, {"name": "StatefulPartitionedCall/sequential_2_1/inception_v3_1/mixed5_1/concat/axis", "shape": [], "dtype": "int32"}, {"name": "StatefulPartitionedCall/sequential_2_1/inception_v3_1/conv2d_153_1/convolution/merged_input", "shape": [1, 1, 768, 192], "dtype": "float32"}, {"name": "StatefulPartitionedCall/sequential_2_1/inception_v3_1/batch_normalization_153_1/batchnorm/sub", "shape": [1, 1, 1, 192], "dtype": "float32"}, {"name": "StatefulPartitionedCall/sequential_2_1/inception_v3_1/mixed6_1/concat/axis", "shape": [], "dtype": "int32"}, {"name": "StatefulPartitionedCall/sequential_2_1/inception_v3_1/conv2d_163_1/convolution/merged_input", "shape": [1, 1, 768, 192], "dtype": "float32"}, {"name": "StatefulPartitionedCall/sequential_2_1/inception_v3_1/batch_normalization_163_1/batchnorm/sub", "shape": [1, 1, 1, 192], "dtype": "float32"}, {"name": "StatefulPartitionedCall/sequential_2_1/inception_v3_1/mixed7_1/concat/axis", "shape": [], "dtype": "int32"}, {"name": "StatefulPartitionedCall/sequential_2_1/inception_v3_1/mixed8_1/concat/axis", "shape": [], "dtype": "int32"}, {"name": "StatefulPartitionedCall/sequential_2_1/inception_v3_1/conv2d_178_1/convolution/merged_input", "shape": [1, 1, 1280, 192], "dtype": "float32"}, {"name": "StatefulPartitionedCall/sequential_2_1/inception_v3_1/batch_normalization_178_1/batchnorm/sub", "shape": [1, 1, 1, 192], "dtype": "float32"}, {"name": "StatefulPartitionedCall/sequential_2_1/inception_v3_1/mixed9_1/concat/axis", "shape": [], "dtype": "int32"}, {"name": "StatefulPartitionedCall/sequential_2_1/inception_v3_1/conv2d_187_1/convolution/merged_input", "shape": [1, 1, 2048, 192], "dtype": "float32"}, {"name": "StatefulPartitionedCall/sequential_2_1/inception_v3_1/batch_normalization_187_1/batchnorm/sub", "shape": [1, 1, 1, 192], "dtype": "float32"}, {"name": "StatefulPartitionedCall/sequential_2_1/inception_v3_1/mixed10_1/concat/axis", "shape": [], "dtype": "int32"}, {"name": "StatefulPartitionedCall/sequential_2_1/flatten_1_1/Reshape/shape", "shape": [2], "dtype": "int32"}, {"name": "StatefulPartitionedCall/sequential_2_1/dense_3_1/Cast/ReadVariableOp", "shape": [51200, 500], "dtype": "float32"}, {"name": "StatefulPartitionedCall/sequential_2_1/dense_3_1/BiasAdd/ReadVariableOp", "shape": [500], "dtype": "float32"}, {"name": "StatefulPartitionedCall/sequential_2_1/dense_4_1/Cast/ReadVariableOp", "shape": [500, 200], "dtype": "float32"}, {"name": "StatefulPartitionedCall/sequential_2_1/dense_4_1/BiasAdd/ReadVariableOp", "shape": [200], "dtype": "float32"}, {"name": "StatefulPartitionedCall/sequential_2_1/dense_5_1/Cast/ReadVariableOp", "shape": [200, 4], "dtype": "float32"}, {"name": "StatefulPartitionedCall/sequential_2_1/dense_5_1/BiasAdd/ReadVariableOp", "shape": [4], "dtype": "float32"}]}]}